rnn_model_weights/RNN_weights.pth (torch, 257520 bytes, 7 tensors)

0.weight f4 [37, 256]
00000000: 4114 aebf a012 2abe 2390 3a40 c02a f03f
00000010: 0ecb 8d3f 02d4 f8bc 1937 ce3d 1cee abbf
00000020: bae4 7ebf f502 773f d59c b2bd d05c e8bf
00000030: 39d2 803c 0120 c0be 8230 43bf 8489 da3e
00000040: 8f78 3bbf 7baa 11c0 2d71 393f ea9a 40bf
00000050: 9148 75bf e6c3 6b3f cc82 4e3f d68b 2c3f
00000060: 303b d3bf f2c6 89bf 61cf 15be c989 b1be
00000070: 0151 b1bf 2fb9 393f 55fc e13f b466 b3be
00000080: 5473 53bf 3db5 2d3e c9d5 94bf 7b87 5dbf
00000090: f736 cb3f ca54 0240 345c ec3e bb2d 7ebe
000000a0: 429b 0f3f 7112 7f3e e5e6 913e a164 b5bf
000000b0: 0038 1abf 13ea b8be cb6c 1fc0 8058 8a3a
000000c0: d501 5dbf e60a 80be a1a2 51bf dbcc 463f
000000d0: 2a30 f33f 8db8 343f 559b d6bd 59f5 25be
000000e0: 1b2d 1b40 a10f 603e b6d8 22bf 98e0 57be
000000f0: bf4d 1e3f e85d 833f b111 803f ef2b 33bf
00000100: fb44 1fbf 752a 6d3e 6652 913f 9741 32be
00000110: a096 0cbf fa28 d33e 77cf 9ebe 4d49 00be
00000120: 1339 593f dcf8 e8bd 1b48 e1bd 3081 94bf
00000130: 1e29 b53e a0bd 703e c3a6 dd3e a513 d6bf
00000140: 1e14 2b3f 346b d93e 313f 80bf c11a d3bf
00000150: 171e 8c3f 1746 eabf 82db 1abf ebf1 5dbe
00000160: b0e2 1e3e 2af3 303f 3b6e 3c3f 385c e1bf
00000170: df7c 163f 94d1 993f 198a 973e 7d16 56bf
00000180: 9c6a 72bf 3427 fc3e e4ce 9abe fd7f 1bbf
00000190: b924 9f3e da78 40bf 631b 91bd a7dc a73d
000001a0: 91d3 14c0 1cd8 8abf 7bd9 36bf e0d9 93be
000001b0: c408 ed3c a41e 54bd 5ba8 503f 18e2 34be
000001c0: b989 e03e f72e 89be ead4 723f 7490 1e40
000001d0: eded dbbd 61d4 a5bf 60de 5dbe 5888 dcbf
000001e0: e056 9e3d ebf0 623e d605 503f 367e 853e
000001f0: 1397 d3be 083d dd3f 4f97 16be 2968 0d40
00000200: fbf4 a13d d2bd a8be ee03 b43f 7ec5 1cbf
00000210: a3dc b73f b89b 8e3f 696f a53f cdcf e93d
00000220: d683 aabf b8a5 d4be 27cd f13e 4f05 0bc0
00000230: bf2b 89bd 8e20 37bf ccb5 573f 4769 12bf
00000240: 4bd4 65be de23 343f e550 7dbf 4e6d 81bf
00000250: 72d7 09bf 1b17 ef3d 4c7b 933f 7d9c 70bf
00000260: 99d3 0e40 1f6c 1e3f c1f6 d13e 17ee 06bf
00000270: 0fff 553f 07af ae3e 87ca 9bbd dc84 69be
00000280: c420 75bf 9267 39bf 4c30 b03e 8986 acbf
00000290: 9f0e 813f 1b58 5abe 1ff5 f43e 21cf aebf
000002a0: 807c 9e3d ec06 813d 9c1b 363f 4a42 5f3f
000002b0: ea5d 41bf c10e e93e a728 8e3f 20dd b43e
000002c0: a9e8 27c0 7aa0 c8bf b8f1 8dbb ed30 76bb
000002d0: a605 063f 8065 40bf 1369 71bf 21d8 a4be
000002e0: 3feb 1a3e b0b0 f1be 8a4e e0bf 0f67 f83f
000002f0: e9fe 40c0 2eac c63f 4d7b 00c0 d65f d23f
00000300: 869c 04be 4de9 79bf fc8f 12bf 4acb 593f
00000310: 5c3d 4bbf 2b62 3c3f 45d6 183f 09dd aa3f
00000320: 5e27 ab3e c0d9 c33f 4ef1 bebe fde1 8fbd
00000330: b32e 73bf f2bc d33f f9f3 8ebf 94b5 59bf
00000340: ce7f 17bf 7c62 74be 039a d23f 9570 50bf
00000350: a9bd 40bf dec2 423f 9bc4 743f a0e5 303f
00000360: 84d3 14bf ec3f 33bf 0364 f63e 97ca aebd
00000370: 49ba 463f dd09 483f 6a39 babf 5855 313f
00000380: 7c34 953f dd6e 383e a614 c43e fec8 babf
00000390: 6421 d63e 44fd 973e 6663 86bf f2c4 b53f
000003a0: 9b89 32bf f0c0 85bf 990f 7dbe 2bd0 aa3e
000003b0: dc0a d3bd 74c9 013f c993 533f 02cc e83f
000003c0: ad2d 8e3f 935b 11bf bf91 983f 0641 92bf
000003d0: 4ff7 9fbf 90f8 e4bf f732 7e3f 8528 063f
000003e0: c01c 8d3e 8b42 49bf 3e9c a1bf e36f e83c
000003f0: c35b c83a 24f8 9a3f 1e45 3fbe 0f59 aebd
-1.3599931 -0.16608667 2.9150474 1.8763046 1.1077592 -0.03037453 0.10069103 -1.343204
-0.9956776 0.9648889 -0.087213196 -1.8153324 0.015725242 -0.37524417 -0.7624589 0.4268304
-0.7323083 -2.2760303 0.7243832 -0.7523638 -0.9581385 0.9209579 0.8066833 0.6740087
-1.6502438 -1.0763838 -0.1462989 -0.34675434 -1.3852845 0.7254819 1.7655131 -0.35039294
-0.8259785 0.16963668 -1.1627742 -0.8653485 1.5876149 2.036425 0.46164095 -0.24822132
0.5609628 0.24909379 0.2849647 -1.4171335 -0.602417 -0.36116084 -2.4910152 0.001055494
-0.8633092 -0.25008315 -0.81888777 0.77656335 1.8999074 0.705941 -0.10478846 -0.16206874
2.424628 0.21880962 -0.63611925 -0.2108177 0.6183738 1.0263033 1.0005399 -0.6998891
-0.6221463 0.23160727 1.1353271 -0.17407833 -0.54917336 0.412422 -0.31017658 -0.12527962
0.84852713 -0.11375591 -0.11000081 -1.1601925 0.35382932 0.23509836 0.43291292 -1.6724745
0.6682757 0.42464602 -1.0019284 -1.649254 1.0946683 -1.830264 -0.6049119 -0.21674316
0.15516162 0.6912104 0.736057 -1.7606268 0.5878429 1.2017083 0.29597548 -0.83628064
-0.94693923 0.4924866 -0.3023597 -0.6074217 0.31082705 -0.75184405 -0.07085302 0.08196383
-2.325413 -1.0847201 -0.714256 -0.28877163 0.028934844 -0.051787034 0.8150689 -0.17664373
0.43855074 -0.26793644 0.9485613 2.4775667 -0.1073874 -1.2955438 -0.2166686 -1.7229109
0.07731414 0.22162215 0.81258905 0.26072854 -0.41326198 1.728425 -0.14706157 2.2094824
0.079080544 -0.3295732 1.4063699 -0.6123885 1.4364208 1.1141272 1.2924625 0.11416588
-1.3321483 -0.41532683 0.4722683 -2.172199 -0.06697797 -0.7153405 0.84261775 -0.5719189
-0.22444265 0.7036723 -0.9895156 -1.0111482 -0.5384437 0.11674329 1.1522002 -0.9398878
2.231665 0.6188373 0.4100857 -0.52707046 0.83592314 0.3411791 -0.076069884 -0.22804588
-0.9575312 -0.7242366 0.34411848 -1.3478557 1.0082587 -0.21322672 0.47843263 -1.3656961
0.0773859 0.06300148 0.7113588 0.87210524 -0.75533926 0.4551907 1.1106156 0.35324955
-2.6235754 -1.5673974 -0.0043317936 -0.0037565783 0.5235237 -0.75154877 -0.94300956 -0.32196143
0.15128802 -0.47205114 -1.7523968 1.9406451 -3.0155585 1.5521295 -2.0075257 1.6435497
-0.12950334 -0.97621614 -0.5725095 0.8507582 -0.793905 0.7358729 0.5970195 1.3348705
0.33428472 1.5300827 -0.37293476 -0.07025526 -0.9499313 1.6542037 -1.1168205 -0.8504269
-0.5917939 -0.23865694 1.6453251 -0.81421787 -0.752894 0.76078594 0.95612496 0.6910038
-0.5813525 -0.7001941 0.48123178 -0.08534735 0.77628 0.7814005 -1.4548771 0.6927085
1.1656642 0.18011041 0.38297004 -1.4592588 0.4182235 0.29685414 -1.0499084 1.4200728
-0.6974122 -1.0449505 -0.24712981 0.33361945 -0.10304806 0.5069802 0.8264738 1.8187258
1.1107689 -0.56780356 1.1919478 -1.1426094 -1.2497348 -1.7888355 0.99296516 0.5240558
0.27560997 -0.7861716 -1.2625806 0.028373664 0.0015286136 1.2106977 -0.1867871 -0.0851308

1.weight_ih_l0 f4 [128, 256]
00000000: 988b 51bd d1ed 6dbd 7f33 bcbd 76f0 cabd
00000010: cee1 373d 4686 15be e7b5 263e 8431 653d
00000020: b199 b13d 9897 cbbc f8ef fe3c 6971 d83d
00000030: 7114 ed3d 948e 84be 311d 453d e318 00be
00000040: 4f58 203e c3a1 0a3e 0fa9 acbd 44c5 03be
00000050: 5677 6b3e 4418 2bbe a7f2 79bc 3aeb 97bd
00000060: bb52 99bd c18b b63d 4b54 54bd 370a 443e
00000070: 94f8 1e3e aec8 a0bb 0f52 113d bcb0 e83c
00000080: 81ab 003d 8ce8 b43d d6a7 3ebd e03f aabd
00000090: 598c 3e3d b399 d2bd a461 36be 4a73 d7bd
000000a0: ffbc 45be bc8d b5bc 8d29 7bbd 08bc f73d
000000b0: 112f 15be 626b 2abd 7b44 903d 3115 763d
000000c0: 7feb c23d 0986 193e f530 553d c275 033d
000000d0: 6079 c8bd 5e53 82bd d413 6a3c cc25 2e3e
000000e0: 92ea 5ebe c668 f03c 41a2 ffbd b1ca c53d
000000f0: 9ba7 8d3c d242 cfbc 866f 32bd ca9e 343d
00000100: 8844 a73d f367 1fbe 15fe b7bc fe7c 083e
00000110: 0811 47bd 6e96 e3bd 2ab5 223d 0d2d 2e3e
00000120: 4236 c4bd e01a 313d 0c4d 233d c697 89bd
00000130: b64f c23d 2586 5ebc d884 07bd 95ee babc
00000140: c3c8 9cbd bdaa 43bd 7fae da3d b209 773c
00000150: da2c d7bc 13b0 c4bd e61c 12be f644 203e
00000160: 0ee5 fb3d 81be 09be 8ebc f0bd afee 113e
00000170: f90c bf3c af9b acbd 3aa8 c6bd 4ea5 5fbe
00000180: 7e7c 0abe 81ee 403e 0540 45bd e1c5 f63d
00000190: 403e a0bc e71f 6cbd 98aa 75bb f08f b7bd
000001a0: 6aeb c83d 6c93 83bd 29bd 19bd a892 be3c
000001b0: 7c61 a1bc bca4 f33b 8c0d 16bc 074f 483d
000001c0: ae04 373c c9d7 4b3e 071c ce3d 0514 86bd
000001d0: 368c 903d cc4e f93d 228f e83d af89 833e
000001e0: 7549 aebd 36ca 243d ee1c 2bbe e8d3 b03c
000001f0: 5c4e 953c a07e c5bc b05f 18be eb9f c13d
00000200: 68c8 c6bd 0979 263e 5b6b 0a3e c34c 8c3c
00000210: aa98 30be 7855 7abd 66ae 193e 0d1a d5bb
00000220: 8179 efbc 2abe 133e 23d6 00be cc99 813d
00000230: 7301 553d 3e59 3abe 4672 3cbe 190f ed3d
00000240: 9d83 8dbd 5ff3 c3bc 55dd 01be c31b eebc
00000250: b6a7 16bc 242c 673d 08c6 653c 7307 ad3e
00000260: 213a 113e 987a d33d 48af 99bd 6606 30bd
00000270: b4d6 f0bd a7b4 05be 090b 833d d321 9ebd
00000280: a7f7 7dbc e1e4 1abe 00fa 043d 4c5c 89bd
00000290: 4e44 203e 7bff 923c 8230 cf3d 38ba 393d
000002a0: a896 2c3d f29d f9bd b6e2 cabb 91dd 48be
000002b0: c6c7 8a3d e69a 1a3e 2e6f dc3d bb0f a4bd
000002c0: cb74 1b3d 01ae 86bd 4a3e acbc 6454 fa3d
000002d0: 4eed ce3d 738b 40bc cdd5 903d 3170 453d
000002e0: bb9b ff3d 6bbb 753e 1d6d 623b defb 2fbe
000002f0: 5dd5 823d 20e4 6d3b fda4 873c db40 12bd
00000300: 2e52 a43d 7855 3b3e bf08 973d 2736 3abd
00000310: a776 d5bd e2ab f9bc b170 91bd 6c24 1bbe
00000320: 033d a9bd 59bc 00be e6ad 513d 64fc 463d
00000330: 2f1b 603e d0aa 54be 27de 013d 97a5 6fbd
00000340: cc2d efbd 1de0 fe3c 3610 973d bea9 c23d
00000350: c34e 113e 9336 06be 7fd6 2ebe 48c9 78bd
00000360: 393c c93c f3fa 89bd b33e 7abd 8e93 dd3d
00000370: 518c a0bd 9be5 36be 1f0e 3d3e 4306 bebd
00000380: 45ca eebd 0997 1a3c 0067 9b3d bf39 373e
00000390: ed26 3cbc 7049 07be 1588 563e 42f8 8dbd
000003a0: 8135 ecbd e037 a83d fbda 223e a5ad 993b
000003b0: 0019 6fbc 4fa5 94bc 1776 4ebc d5a6 4bbe
000003c0: a677 a5bd c091 c739 c782 fbbd f124 f63d
000003d0: 75d2 c63d 289d 4fbd 78bc 1dbe a88f 16bb
000003e0: c884 e03d 769a 5d3e 58f8 7c3b 70f4 283e
000003f0: 0edd 4cbe 4ea7 fcbd 892a dc3d 8928 acbb
-0.051158518 -0.058088128 -0.091895096 -0.099091455 0.04489308 -0.14602003 0.16280328 0.055955425
0.086718924 -0.024852559 0.031120285 0.10568506 0.115761645 -0.25890028 0.048123542 -0.12509494
0.15658687 0.1353827 -0.08430683 -0.1286822 0.22994742 -0.16708475 -0.015255607 -0.07417913
-0.07486483 0.08913375 -0.0518382 0.19144522 0.15524513 -0.0049067354 0.035478648 0.028404586
0.03141356 0.08833417 -0.04654678 -0.083129644 0.046520565 -0.10283222 -0.17810684 -0.105200365
-0.19310378 -0.02216231 -0.061318923 0.12096411 -0.14568736 -0.041606314 0.070443116 0.060078803
0.095175736 0.14992537 0.052048642 0.032094724 -0.097887754 -0.06363557 0.014286954 0.17006606
-0.21769169 0.029346835 -0.12482119 0.09657801 0.017291835 -0.025300417 -0.04356339 0.044096746
0.08167368 -0.15566997 -0.022460023 0.1332893 -0.048600227 -0.111126766 0.039723553 0.17009373
-0.09580661 0.04323852 0.0398684 -0.067184016 0.0948786 -0.013581787 -0.033085674 -0.022818843
-0.0765548 -0.04777025 0.10677814 0.015077995 -0.026266504 -0.09603896 -0.14268836 0.15651307
0.12299548 -0.13451578 -0.11754714 0.14251207 0.023321616 -0.08428132 -0.097000554 -0.21840402
-0.13524053 0.18840982 -0.048156757 0.12049461 -0.019560933 -0.057647612 -0.0037485715 -0.08963001
0.09810527 -0.06424603 -0.037533913 0.02326329 -0.019699804 0.0074354094 -0.009158503 0.04890349
0.011170549 0.19906534 0.100639395 -0.06546787 0.07057993 0.121732324 0.113554254 0.25690982
-0.085101046 0.040231906 -0.16710255 0.02158542 0.018225841 -0.024108231 -0.14880252 0.0945433
-0.09706193 0.16257109 0.13517515 0.017126447 -0.17245737 -0.061116666 0.15007934 -0.0065033496
-0.029232742 0.1442801 -0.12581687 0.063281626 0.052003335 -0.18198106 -0.18402967 0.11575145
-0.06909869 -0.02391976 -0.12682088 -0.029065972 -0.009195259 0.05643858 0.014024265 0.33794746
0.1418233 0.10326117 -0.07504135 -0.042974852 -0.11759701 -0.13057195 0.06398589 -0.07721295
-0.015500939 -0.15126373 0.03246498 -0.06707057 0.15651056 0.017944088 0.10116674 0.045343608
0.042135864 -0.12188329 -0.006191577 -0.19615771 0.06776385 0.15098152 0.10763393 -0.08010813
0.03795318 -0.06576157 -0.021025795 0.122231275 0.10103856 -0.011751997 0.07072029 0.048202697
0.12480875 0.23997276 0.00345499 -0.17185923 0.06388352 0.0036299303 0.016558165 -0.035706382
0.08023487 0.18294322 0.07374715 -0.0454618 -0.10423022 -0.030477468 -0.07101572 -0.15150613
-0.0826359 -0.12571849 0.051191233 0.048580542 0.2188537 -0.20768285 0.031706 -0.05850753
-0.11678657 0.031112725 0.07376139 0.09505032 0.14190201 -0.13106756 -0.17074011 -0.06073883
0.02456485 -0.06737318 -0.06109495 0.108191594 -0.07839263 -0.17861025 0.18462418 -0.09278538
-0.116596736 0.009435424 0.07588005 0.17893122 -0.01148389 -0.13211608 0.20950349 -0.06932117
-0.115336426 0.08213782 0.15903847 0.0046898895 -0.014593363 -0.018145232 -0.012601397 -0.1988786
-0.08079462 0.0003806483 -0.12280803 0.12018765 0.0970811 -0.050686985 -0.15403926 -0.002297381
0.10962826 0.21640953 0.0038600173 0.16499496 -0.200062 -0.12336598 0.107503004 -0.0052538556

1.weight_hh_l0 f4 [128, 128]
00000000: c1c6 9fbe 456a ab3e 3bd6 c73e eccb 4d3e
00000010: 378f 3bbe 012d 063e 5050 363e e030 de3d
00000020: cc7f 993e 3919 07be d068 ab3c 1b8e 2d3e
00000030: 6740 ab3e 3fca e43d 9aeb 2f3e 0157 8a3c
00000040: 8ad8 34be 134e 9a3e aa4a b23e b054 a9bc
00000050: 56ab 3dbd 7cd4 a6be ab05 50bb 7c62 ddbd
00000060: d134 073f bd0c e4bb 993b ee3d cd06 acbd
00000070: 75fb 033e 6ea9 073c 3d95 67bc 5846 f1bc
00000080: 7f63 86be 9d5f 87be efed 6b3e 7976 32be
00000090: a5c9 5b3e d46a 733e 6db4 a8bd 9a4b 873e
000000a0: 9e26 543e a68c 9a3e d33b 913e df76 b8be
000000b0: 41cb 8e3d cbc8 80bd 6e93 17bd c22d 813d
000000c0: c88b e53d bc5f d43d 08ac fcbd 83ae cf3d
000000d0: 1370 e93d 6cde 383e aecd bdbe 0f2f d1bd
000000e0: cd93 3fbe dc18 6b3e 75bd e43e 4e96 103e
000000f0: d8b3 07bf 3b1f e4be 4f86 e13e 1b00 3c3e
00000100: fd5d 76be 1490 74be b37b 0d3f ed09 5fbd
00000110: 38f0 33be 1bbb 803e 808a bdbd e7db c2be
00000120: e7b3 163e 9d0a 1f3e 1900 fb3d 63d3 b6bd
00000130: debb ebbc 8ee4 2fbe 1e9d ac3d de88 c23e
00000140: 96aa 193e 8527 79be 59b0 103e 6a58 b2be
00000150: 9ff3 edbd 58a0 f7bd 3ae2 233d 59ed 443e
00000160: 9b8b 6dbd 7cb5 40be 361f a03e a5af a9bd
00000170: a2e0 883d e890 363d a4cc 83be 8618 77bc
00000180: fc25 9ebd 69e6 b9be ae40 98be bc15 93be
00000190: 0cf7 603e c314 dbbd 7e12 2cbe c7e0 273d
000001a0: b9e5 35be 60e3 19be b1ce 6cbe a7da ce3d
000001b0: a0bd b83d f791 b4bc fcc5 9cbc 4dee d23e
000001c0: ba97 c6bc a1c5 be3d 5e2a 1f3e 2e16 bd3e
000001d0: a8a1 adbd f1f6 49bd b94a ddbe d2d4 14be
000001e0: 7746 6bbe b9dc 943e db16 3abd ab84 5d3e
000001f0: 7a51 3e3e d2f2 8bbe 3873 3abc ff75 edbe
00000200: 10d3 17ba c6b3 93bd 58a8 34bc 893b 4bbe
00000210: 47bd 03bf aeda 60bd 1573 863e 8d12 673e
00000220: 9c30 78bd 36e5 79bc c2ad 9d3c f618 b2bc
00000230: c126 91be 8029 313e 2908 6b3c ed1b c3bd
00000240: 0f4e bebd 150b 463e 9b68 073f a584 a03e
00000250: 4497 5c3e a263 6f3e 9c06 433e a865 44be
00000260: fca7 f9bd 204e 0f3d 454b 0c3e d8ac e4bd
00000270: 9f30 073e 5377 783d cbcb 0c3e 0f74 373e
00000280: 10cf bcbe 4432 593e 2ddb 1fbe cbb9 bbbd
00000290: 53f4 103c 99e5 d1be 4add adbc 11fb 083c
000002a0: 5812 7d3d 33d1 69bd d7af 8fbd 13e8 473d
000002b0: 3eed a2be e39b c23e 608c ea3d b152 20bc
000002c0: 3bbe 2cbe 1e1c 5cbe caf7 0bbf a5d0 67bd
000002d0: f205 c2bd faf1 4bbe 2326 063f 0139 0ebe
000002e0: 5f8c d6bd ce65 093e f407 18be 910a bf3e
000002f0: 21a6 273e 0dec 2ebe aca0 253c cb09 7cbe
00000300: e409 d23d f2dc dbbc d98d ee3c cae6 7c3e
00000310: 7778 2cbd 2bb7 45be 72ab 69be bb32 843d
00000320: 5f26 0e3e 05c7 ba3c 9e47 1dbe 7f01 0a3d
00000330: be26 9fbe 05d8 923d bb7a 35be 9cae fd3d
00000340: 4604 723e b339 9ebe 6de5 823d 4220 d9bd
00000350: 8caa a9be 0a72 78bc 15af 203d a9cd 7f3d
00000360: 3bd4 e53e b8f4 14bf 3571 da3e 690c 31bd
00000370: 41f8 5cbe d0af 02be 0a00 a9bd f859 c73e
00000380: 355b e13d d818 72bb 52a7 4ebe 4bc2 c1bd
00000390: 08c7 febd 8e4f a0be 8f61 1ebe 59ce 0a3f
000003a0: 381d 0d3c c962 ad3e d45f 8ebd 18b7 c1be
000003b0: 6784 c0bc c81b 9a3d 6de6 db3d f24d f43d
000003c0: 692a 4c3e 85cd 0b3e 793d 88be ba0a 003e
000003d0: 915b fa3e b5cf afbd baba 1c3e 0b07 11bf
000003e0: cb01 9abe 0a95 c53e 62b6 8cbc 5f3f b43e
000003f0: 45ba 893e 04be b33d e1ef 503e c289 b6bb
-0.31206325 0.33479515 0.39030632 0.20097321 -0.18316351 0.13103105 0.17804074 0.10849166
0.29980314 -0.13193215 0.020924002 0.1694874 0.33447573 0.11171388 0.17179719 0.01688719
-0.17660728 0.3013769 0.3482259 -0.020670265 -0.046305977 -0.32583988 -0.003174166 -0.108098
0.52814966 -0.0069595263 0.11632461 -0.08399735 0.12888892 0.008280141 -0.014134702 -0.029452488
-0.26247784 -0.26440135 0.23039983 -0.17428006 0.2146364 0.2377122 -0.082375385 0.26424867
0.20717856 0.3018543 0.28365955 -0.3602819 0.06972361 -0.06288298 -0.037005834 0.06307556
0.11208302 0.103698224 -0.123375 0.10140707 0.113983296 0.18053597 -0.37070984 -0.10214054
-0.18708725 0.22958702 0.44675794 0.14119837 -0.53008795 -0.44555077 0.44047782 0.18359415
-0.24059291 -0.23883086 0.55266875 -0.054452825 -0.17572105 0.2514275 -0.092549324 -0.38058397
0.14717065 0.15531392 0.12255878 -0.089270376 -0.028776105 -0.1717703 0.08428405 0.37995046
0.1500648 -0.24331482 0.14129771 -0.3483308 -0.11618733 -0.1209113 0.04001067 0.19231166
-0.057994466 -0.18819231 0.31273812 -0.08285455 0.0668347 0.044571787 -0.25742066 -0.01508153
-0.07722089 -0.36308601 -0.29736847 -0.2872752 0.21969241 -0.10697319 -0.16803929 0.04098585
-0.17763413 -0.15028143 -0.23125722 0.101002984 0.09020543 -0.022042258 -0.019137375 0.41197434
-0.02424227 0.093150385 0.15543506 0.36930984 -0.08478099 -0.049307767 -0.4322107 -0.1453431
-0.22976099 0.29074648 -0.045431953 0.2163264 0.18585768 -0.27333695 -0.011380009 -0.46379086
-0.00057916436 -0.072120234 -0.011026464 -0.1984693 -0.5146069 -0.05489605 0.26259676 0.2256567
-0.060593233 -0.015252402 0.019247893 -0.021740418 -0.2834988 0.17300987 0.014345207 -0.09526811
-0.09292232 0.19340165 0.5289399 0.313512 0.21542078 0.2337785 0.1904549 -0.19179404
-0.121902436 0.034986615 0.13700588 -0.1116578 0.13202141 0.06066067 0.13749616 0.17915367
-0.36876726 0.21210581 -0.15610953 -0.091662966 0.008847314 -0.40995482 -0.021223683 0.00836064
0.061785072 -0.057084274 -0.07015961 0.048805308 -0.31821626 0.38009557 0.11452556 -0.00978534
-0.16869442 -0.21495101 -0.5467497 -0.056595463 -0.0947379 -0.19916525 0.5240194 -0.13888933
-0.104759924 0.13417742 -0.14846784 0.3731275 0.16371967 -0.17082234 0.010109108 -0.2461311
0.10255793 -0.026838753 0.029120373 0.24697414 -0.04210707 -0.19308154 -0.22819307 0.064549886
0.13881825 0.022799978 -0.15359351 0.033692833 -0.31084245 0.07170109 -0.17722599 0.1238682
0.23634443 -0.30903396 0.06391416 -0.10601856 -0.3313793 -0.015163908 0.03922947 0.062451992
0.44888481 -0.5818591 0.42664495 -0.043224726 -0.21579076 -0.1276238 -0.082519606 0.38935828
0.110037245 -0.0036941078 -0.20181015 -0.094608866 -0.12440306 -0.31310695 -0.15466903 0.5422111
0.008612923 0.3386443 -0.069518715 -0.37835002 -0.023500634 0.0752483 0.107373096 0.119289294
0.19938053 0.13652618 -0.266094 0.12504092 0.48897985 -0.08584539 0.15305606 -0.5665137
-0.30079493 0.3859027 -0.01717681 0.35204598 0.26899925 0.08776477 0.20404007 -0.005570621

1.bias_ih_l0 f4 [128]
00000000: f7b9 cebd 63a7 41bd f9cb d83d d0d7 e8bd
00000010: 2a33 483d aa83 0abe c9b1 d5bd 94fc 06be
00000020: d38b babc 6e85 cdbc 47d2 5dbe 6aa2 223e
00000030: 7582 f43d 4ed0 553d 78c6 67bd 82da b93d
00000040: 2515 553d d7c7 c83d 98cd 21bd f94a c93d
00000050: 64d0 233e 3218 eebd eb7f ebbd d622 733c
00000060: 169e 3fbd 4748 083e fba1 09be 8980 2b3e
00000070: 3ede 36bd 3b5c 35bc 613d d03d 8aef ccbc
00000080: d281 523e 588f e0bd cc63 1bbd faf9 9d3d
00000090: 16c0 bf3d c271 9f3c 9a89 183d 8f05 65bd
000000a0: 1cd7 32be fcf4 843d 5378 61be d1a4 2bbd
000000b0: a508 923d 856c 333d 40c8 ae38 82f3 323d
000000c0: 9645 953d ecce b9bd de67 a8ba 0f62 4f3c
000000d0: 922b 1dbd a714 32bd c3f0 533c f49e 9cbd
000000e0: 8ac5 28be 3d24 c13b fd60 b13d eb7c 4a3e
000000f0: bbde 293e 0c58 6cbe 4538 3cbe 9653 58bc
00000100: 7090 d2bd e072 b53a b0a0 06bd f3c8 c7bd
00000110: 69f0 1cbd 90fc 89bd d924 2bbe 92db 2e3d
00000120: ad34 973d f5a4 903d 7eb7 4a3d 7480 febd
00000130: b984 0c3e 6aa8 b1bd 960f 6a3d 1f97 4cbd
00000140: d32d 31bd 50a9 5b3d 5051 113c 9d98 ebbc
00000150: aa22 21be 3c45 7a3d 7bc0 80bd 215d 353e
00000160: 1481 06be 3d46 843d 7cd8 d1bc 6869 1b3e
00000170: 9632 2ebc 556b 5d3d 8f44 efbd 9658 d23d
00000180: 71c1 81bd 2dcb 593e b9c1 18be 7b0d a2bd
00000190: 6826 e3bd ce29 543e 53f5 473e bea1 783c
000001a0: d44a cbbb cb7c 883b f0f0 653c 98ea 513e
000001b0: 834d 3ebd b863 dabd f774 04be b064 3cbc
000001c0: 9a31 87bd f510 3fbe 6dec aebd 1604 0e3d
000001d0: 0832 50be 16f1 1cbd c3d9 a93d a97b b73d
000001e0: 45f9 4cbd 8ad6 c53d 8677 af3d be84 69bd
000001f0: 0773 12be a47e 463e 4bab 353d 232f c23b
-0.10094064 -0.047278773 0.1058578 -0.11369288 0.04887692 -0.13526788 -0.104343005 -0.13182288
-0.022771752 -0.025088038 -0.21662246 0.15882269 0.11938945 0.052200608 -0.05658576 0.0907488
0.052022118 0.098037414 -0.03950271 0.09828753 0.15997463 -0.11625709 -0.11499008 0.0148398485
-0.046781622 0.13308822 -0.13440697 0.16748251 -0.04464554 -0.011069353 0.10167957 -0.025016565
0.20557335 -0.10964841 -0.03793697 0.07713695 0.09362809 0.019463424 0.037240602 -0.055913504
-0.1746487 0.064920396 -0.22018556 -0.041905228 0.07130555 0.043804664 8.334266e-05 0.04368926
0.07288663 -0.0907267 -0.0012848338 0.012657656 -0.03837163 -0.043476727 0.01293582 -0.076475054
-0.16481605 0.0058942125 0.08661077 0.19774215 0.16588871 -0.23080462 -0.1838084 -0.013203522
-0.102814555 0.001384344 -0.032868087 -0.09755125 -0.03831521 -0.067376256 -0.16713275 0.042689867
0.07383094 0.07062713 0.049491398 -0.12426844 0.13722505 -0.086747006 0.05714377 -0.049948808
-0.043256592 0.053628266 0.008869484 -0.028759295 -0.1573588 0.061101183 -0.06286713 0.17711307
-0.13135177 0.064587094 -0.025615923 0.15176928 -0.010632178 0.054057438 -0.116829984 0.10270803
-0.06335724 0.21268912 -0.1491765 -0.079127274 -0.1109131 0.20719072 0.19527178 0.015175281
-0.0062039886 0.004165267 0.014034495 0.20499647 -0.04646064 -0.10663551 -0.12935244 -0.011498615
-0.066012576 -0.18658812 -0.085411884 0.034671865 -0.20331585 -0.038315855 0.08293488 0.08959133
-0.05004241 0.09660061 0.08567719 -0.05701136 -0.14301692 0.19384247 0.04435281 0.0059260293

1.bias_hh_l0 f4 [128]
00000000: c3bc 2cbe 846c 7c3b 1850 d13a 1010 b9bd
00000010: 95c2 8c3d 6d50 11be 52d5 ca3c a6ad cebd
00000020: 0ca0 f33c ec47 91bd 1c9c 26be 6f02 e03d
00000030: cfbf 293e 089c a6bd 58ed 99bd f958 de3d
00000040: dae8 ef3c 1974 23bd b88a e9bd e2bd cdbb
00000050: fc05 283d e993 0fbe f1aa 02be 2161 e7bd
00000060: 6832 543d 0d64 bf3d f703 17be fc42 133e
00000070: 491b 4fbd 9597 7cbc 5cb4 ec3d a4c5 453c
00000080: 78e2 483e 0c66 e53c 0cf3 febd 1ef3 633e
00000090: acf4 993d 3f9e 0d3e 8ebc a83d 8051 133d
000000a0: 7eef e9bd 348b 13bd a939 56be 8886 efbc
000000b0: 8650 a73d 0dfe d23c 6863 27be 750e 9e3d
000000c0: 504f b6ba 51a8 28be e3ba c8bc fd99 10bd
000000d0: 2685 a63d 51ef 46bc 1d52 c23c 29aa 7dbd
000000e0: 8d80 27be 6512 adbd 248b 7bbc 443b 0d3e
000000f0: 7425 7a3d 1843 f4bd 7a27 05be a33f c13c
00000100: 1726 9d3c 0f7e dcbd 0a8b f0bc 06a2 233d
00000110: 97da 683c 19d5 5fbd 5265 f4bc 87f9 683d
00000120: 1ba6 f7bc a793 9a3c 0527 cabc 19d9 d9bc
00000130: f155 483d ce53 acbd 32e7 a1bc cf8b 0cbe
00000140: fecf fdbd a9de bdbc c13a bdbd 1732 0e3c
00000150: eb01 b7bd ca0e 983c ff50 ae3c d8a4 5e3e
00000160: ba30 2cbd baea 38bc f9d1 9b3c fc61 7c3c
00000170: 262c 92bd 7e18 1b3e 0bc1 e3bd 78d8 323e
00000180: 20d8 383a e624 753e c82b 52be fbff 3dbe
00000190: a54c e0bd ecc1 743e 1e98 c23d 259c 08be
000001a0: f82b 4639 b0ac 2c3d b811 933c 64c0 1a3d
000001b0: 9c59 d13c a20e 1dbe 5ef4 37be 7847 a63c
000001c0: cb99 c2bc 1e0a fcbd 62f0 243b c61f 163c
000001d0: 5216 56be 44e4 913c 0140 233e 4462 d23b
000001e0: f0a8 8d3d 8997 df3c c418 0f3d 3679 a7bd
000001f0: 69a7 913c a768 203e 0cfb de3c 3457 fabc
-0.16868882 0.0038516829 0.0015969304 -0.09036267 0.06873051 -0.14190836 0.024759922 -0.100917146
0.029739402 -0.07093796 -0.16270489 0.10937964 0.16577075 -0.08135229 -0.07515973 0.10856814
0.029285837 -0.03990564 -0.114034116 -0.0062787393 0.041021332 -0.14021267 -0.12760521 -0.11297823
0.051805884 0.09345255 -0.14747606 0.14381021 -0.05056313 -0.015416999 0.11557838 0.012071047
0.19617641 0.028002761 -0.12448701 0.2226071 0.075173706 0.13829897 0.08239089 0.035966396
-0.11422633 -0.036021426 -0.20920433 -0.029238954 0.081696555 0.025755906 -0.16346514 0.07717601
-0.0013909135 -0.16470458 -0.024503177 -0.035303105 0.08130865 -0.012142018 0.023720795 -0.061929855
-0.16357632 -0.08450774 -0.015352998 0.1379214 0.061070874 -0.119268596 -0.1300334 0.023589915
0.019183202 -0.10766231 -0.029363174 0.03994944 0.014212272 -0.054646585 -0.02983347 0.056878593
-0.030230572 0.018869234 -0.02467681 -0.026592778 0.048910085 -0.08414422 -0.019763563 -0.13725208
-0.12393187 -0.023177462 -0.09239722 0.008678935 -0.08935913 0.01856174 0.021278856 0.2174257
-0.042038657 -0.011286432 0.019021021 0.015404221 -0.07137327 0.15146062 -0.111208044 0.17465389
0.0007051248 0.23939857 -0.20524514 -0.1855468 -0.10952119 0.239021 0.0950167 -0.13340814
0.00018899131 0.042156875 0.017952785 0.037781134 0.025555424 -0.15337613 -0.17964312 0.02029775
-0.023754975 -0.12306617 0.0025167693 0.009162849 -0.20906952 0.01780904 0.15942384 0.0064204056
0.06916988 0.027293937 0.034935728 -0.08177416 0.017780023 0.15664922 0.027219318 -0.03055916

3.weight f4 [37, 128]
00000000: b772 aabe c373 dc3d a11e 9e3e 407b 953d
00000010: a44f 5b3e 651b d7bd 4879 3b3e ca74 66bd
00000020: 8ef5 963d 8ead 8e3e 5394 a7bc 8416 d5bd
00000030: 72f7 413e 2132 d7bd e069 5bbe 343d 7c3d
00000040: 4631 f7be b257 b2be 581c 7f3e 84a5 673d
00000050: 684b 8f3d 2762 0abe 3387 fd3e d894 30be
00000060: 3595 c3bd 52b0 1abe f19f 413d 869e 2c3d
00000070: dae1 953e 48b5 813d 97c1 733e b04f a3bd
00000080: 1ea6 313e a116 77be 8571 2dbe b53a 003d
00000090: 8278 7b3e bc51 f63d 7247 243e 6b3d a4be
000000a0: 6905 aa3e e5eb a83e b5fa 1b3e 79ce a83d
000000b0: 27c1 e23e a5a4 aebe b1fa cdbe 28f6 9ebd
000000c0: dca5 0ebe 9bdd d4bd cdc9 afbe 7c65 6f3d
000000d0: ee94 283e dcb7 60bc 8b17 06be c94c b5bd
000000e0: 8082 fe3d d516 b4bd 3866 433e 3951 173c
000000f0: 8181 fa3d c10f b63e 9cce b03c 204e 623e
00000100: d8d9 28bd e71e a43e f240 ab3e 410e 4a3e
00000110: 3045 a5be de3f f1bd f1d6 febd 4001 8fbe
00000120: bcea 51be 9c01 d83e 9b1d 5b3e e170 aa3c
00000130: bdf8 b33e 9d55 2ebd 2219 5fbe 1bdc 9cbd
00000140: 1e28 7d3e cd8b a4bd 6ab2 a33e 3147 16bd
00000150: 3392 1fbe 664b ad3e a5a9 22be db21 c43d
00000160: da5d 883e c1d2 9e3d 7a3c b23d 0c4d 07be
00000170: 59c0 923e d2fc dcbd d47e 47be b9e4 f83b
00000180: 0ed8 8f3e 76df 7ebd 38d8 4fbb 6e5d 8d3d
00000190: eefe 57be b2cb 773c 8c1b 413e ea39 b63e
000001a0: bfa4 60bd e86a cbbe bce4 223e 9cbf 47bb
000001b0: f9bb 793e da55 e7bd 149d 8fbd 7578 b2be
000001c0: 5889 823e f2bf 93be 70bd 35be a621 b0be
000001d0: d292 35be 0c28 f2bc c671 853d 5f91 943e
000001e0: ddcc 3bbe f0fd c73e d84d 803e 1760 23be
000001f0: b977 e9bd 4a90 5b3e 7335 643e e6b3 553e
00000200: 9678 1fbd dd4f ba3d adb6 ce3d 1bcb 103e
00000210: 66e4 a5bd 62a7 683e 60e7 913e 931a 93bc
00000220: fac8 5d3e 3945 d43d c758 a03d 8ba0 893d
00000230: 097b 333e 1f13 5fbe c606 533d a1cf 79be
00000240: 420f 8fbe 579a 40be 4d7f 65bc 1dd9 4ebe
00000250: 7352 053e 2b4f 6fbb c1a1 863e 2ecd 97be
00000260: 1ad5 2bbe f620 4fbe ac30 b43e 7179 5dbd
00000270: 34a3 333e 66f1 dc3d d6d3 023d 80c3 123e
00000280: a48b a43b 0bc3 9dbe e029 733e 94e8 37bb
00000290: 8b71 bb3d b450 903d 619e cbbd 851d 573d
000002a0: d43d c53e 0701 e13d eb6f 253e 656f a9bd
000002b0: e1ec bf3d 13c2 c9bd 2be5 d3bd a401 8bbd
000002c0: f485 2bbe 0d1f 0d3e 7cd2 59bd 40a7 69be
000002d0: 048d 163e def9 333e 3afa 17be 1c78 90bd
000002e0: 1a0d 8b3d 20e0 a3be 2e56 a13e 8b35 113d
000002f0: f0d0 2abe 219c 313e 6964 ed3d b452 7fbe
00000300: 7c0b 133d f2da b03c 50bf a3bc 9a59 c4bc
00000310: 4a3b 55be bd95 1b3e 0827 2a3e 6b29 e43b
00000320: 2a2b ffbc 87fd 0d3e e82a 4e3e 3657 333e
00000330: 4c16 633e 4679 1bbe 2283 cbbe 8080 233d
00000340: 01e5 a53e 36b2 bf3d 6a53 713e fae7 223e
00000350: 35fa b53d e842 e73d 2bbd aebe 2cd3 babd
00000360: 5847 483e bfad 823c 799e 813e 11c6 253e
00000370: b3f9 5d3e b7d6 87bd b8eb 3ebe 4390 0dbe
00000380: 20b1 393e 4aca a7bd fcda dabd 0639 813d
00000390: 3630 5e3d e259 32be 19b3 45be 841f 053e
000003a0: 609e 773d 5e82 49bd 7ccc f73d e039 44be
000003b0: ecac 803e 8296 17be df0e 543e d5f7 993d
000003c0: cc3e e7bc 916c 0c3c d314 173d 6eb0 93ba
000003d0: 915a 653d 8827 aabd e40c 8ebe c259 733e
000003e0: f48c b2bc 48e5 2cbd f69c 663e a431 8d3e
000003f0: 81b8 453d 904f 263e 2da9 8fbe 679d 063e
-0.33290645 0.10764267 0.30882743 0.07298899 0.21417099 -0.10503272 0.18307984 -0.056263722
0.073710546 0.27866787 -0.020456469 -0.10404685 0.18942049 -0.10507608 -0.21427107 0.061581805
-0.4827978 -0.3483253 0.24913156 0.056554332 0.069968045 -0.13514005 0.4951721 -0.1724428
-0.09549943 -0.15106323 0.047271673 0.042143367 0.29273874 0.06333405 0.23804317 -0.079741836
0.17348525 -0.24129726 -0.16937836 0.031305987 0.24557689 0.12027308 0.16042879 -0.32078108
0.33207253 0.32992473 0.15232356 0.082425065 0.4428799 -0.3410999 -0.40230325 -0.07761794
-0.13930458 -0.103938304 -0.3433365 0.058446392 0.16463062 -0.0137157105 -0.13094918 -0.08852536
0.12427235 -0.08793417 0.19081962 0.009235674 0.12231732 0.35558894 0.021582894 0.22100115
-0.041223377 0.32054827 0.33447987 0.19732 -0.32279348 -0.1177976 -0.124433406 -0.2793064
-0.204997 0.42188728 0.21398012 0.020805778 0.3515071 -0.042562116 -0.21786931 -0.07659169
0.24722335 -0.080344774 0.31972057 -0.036688987 -0.15583114 0.33846587 -0.15885027 0.0957677
0.26634103 0.07755042 0.08702941 -0.13212985 0.28662375 -0.10790409 -0.19481975 0.0075956252
0.28094524 -0.062224828 -0.003171457 0.06902586 -0.21093342 0.015124248 0.18858165 0.3559106
-0.054844614 -0.3973 0.15907568 -0.0030479198 0.24388112 -0.11295672 -0.07012382 -0.34857526
0.2549541 -0.2885738 -0.17748046 -0.34400672 -0.17731789 -0.029560111 0.06515841 0.2901716
-0.18339868 0.39060926 0.2505939 -0.15954624 -0.113997884 0.2144176 0.22286014 0.20869407
-0.03893336 0.09097264 0.100934364 0.14139979 -0.08100204 0.22720101 0.28496838 -0.017957008
0.21658698 0.10364766 0.07829433 0.06720074 0.17527403 -0.21784638 0.05152013 -0.2439561
-0.27941328 -0.18808876 -0.014007402 -0.2020001 0.13019733 -0.0036515694 0.26295283 -0.29648727
-0.1678051 -0.20227417 0.35193384 -0.054070894 0.17542726 0.107882306 0.031940304 0.1433239
0.0050215293 -0.30812868 0.23746443 -0.0028062211 0.09152516 0.07046643 -0.09942318 0.052518386
0.38523734 0.10986524 0.16155975 -0.082732 0.09371353 -0.0985147 -0.10346445 -0.06787422
-0.16750318 0.13781376 -0.05317925 -0.22817707 0.1470223 0.17575786 -0.14841548 -0.07054159
0.06789608 -0.3200693 0.31511062 0.035451453 -0.16681266 0.17344715 0.11591417 -0.24933892
0.035899624 0.021588776 -0.019988686 -0.023968507 -0.20823398 0.1519384 0.16616452 0.006962945
-0.031148512 0.13866244 0.20133555 0.17513737 0.22176474 -0.15182981 -0.39748484 0.03991747
0.3240128 0.09360163 0.23566976 0.15908805 0.08885614 0.11292058 -0.341287 -0.09122309
0.19558465 0.01595199 0.25316218 0.16188838 0.21677284 -0.066327505 -0.18644607 -0.13824563
0.18133974 -0.081928805 -0.10686299 0.063097045 0.054245196 -0.174171 -0.19306602 0.13000304
0.060453773 -0.049196593 0.12099549 -0.19162703 0.2513193 -0.14803508 0.20708798 0.07517973
-0.028228186 0.008570806 0.036885094 -0.001126779 0.055994574 -0.08308321 -0.2774421 0.23764709
-0.021795727 -0.042210847 0.22520813 0.27576935 0.04827166 0.16241288 -0.28058758 0.13145982

3.bias f4 [37]
00000000: 7dd2 34bd 72c6 e6bd 4de3 acbb f736 90be
00000010: 271f 433d fd78 26bf f051 66bf a8a9 60bf
00000020: 1f29 4abe ffb3 73be 6e4f a8be 07b5 3bbd
00000030: 421b 6d3c 851c 74b9 d6e5 c13d 6c86 8a3d
00000040: ea47 383d 850f c6bd 5ed1 afbd a7b8 d53d
00000050: acc8 83be 8fa4 11be 4a06 513d c92e 48bd
00000060: 3e92 223d cbfc aabd 2aae b9bc 854c 5fbe
00000070: cab5 08be 7e02 9e3d c0ab 78bd 88d2 813e
00000080: aedd 3abe 072d ecbd a77d a4be 1ab2 123d
00000090: 6c2e 65be
-0.04414605 -0.11268319 -0.00527612 -0.28166935 0.04763713 -0.65028363 -0.89968777 -0.87758875
-0.19742249 -0.23799132 -0.328731 -0.045826938 0.014471831 -0.00023280278 0.09467666 0.0676392
0.044990458 -0.09670929 -0.085848555 0.1043561 -0.25739038 -0.1422293 0.05103139 -0.048872743
0.03969025 -0.08348998 -0.022666056 -0.21806534 -0.13350597 0.07715319 -0.06071067 0.25355935
-0.18248627 -0.11532026 -0.32127115 0.035814382 -0.2238099
