cs4641-hw4/rnn_model_weights/LSTM_weights.pth (torch, 850427 bytes, 7 tensors)

0.weight f4 [37, 256]
000000 7f 4c 68 bf cd 8c 92 3e 7f 24 14 bf 70 99 c8 3f
       -0.90741724 0.28623047 -0.5786819 1.5671825
000010 5e 45 c1 3e f1 ab 64 3f eb 54 2c 3f f3 1e b8 bf
       0.37748235 0.8932486 0.67317075 -1.4384445
000020 c3 c2 14 bf a5 25 a3 bd 35 81 c5 be fc be c7 3f
       -0.5810968 -0.079661645 -0.3857514 1.5605159
000030 82 ee f6 bf ac 8c 56 bf 07 9e 76 3f 43 28 94 bd
       -1.9291537 -0.838084 0.9633488 -0.07234242
000040 15 77 8b be 05 9f ca 3e fb 38 73 bf 45 99 9d be
       -0.2723929 0.39574447 -0.9500882 -0.30780998
000050 be 92 c6 3f 62 09 a1 3e 79 04 37 be de 07 14 3f
       1.5513532 0.3145247 -0.178728 0.57824504
000060 0d b9 81 be dc ca 2a 3e 8d 51 92 3f c9 d9 8e bf
       -0.25336495 0.16678947 1.1431137 -1.1160213
000070 2c 14 01 c0 fc 02 b3 bf 4d a1 a7 3e 13 32 b2 3d
       -2.0168562 -1.3985286 0.3274025 0.08700957
000080 a3 ff 81 3f 0c 6d da 3e 36 a3 dc bd b8 fd a6 bf
       1.0156139 0.4266132 -0.107733175 -1.3046179
000090 b3 dd e7 bf 2c 46 9d 3f 50 93 82 3f e2 3c 27 3f
       -1.8114532 1.228704 1.0201206 0.65327275
0000a0 90 33 c3 3f 82 d4 3a bf f1 94 21 bf 34 b4 96 bf
       1.5250111 -0.7298051 -0.6311789 -1.1773744
0000b0 08 21 04 3e bf 99 99 3e 61 1c 10 3f b4 41 ce be
       0.12903225 0.3000011 0.562933 -0.40284503
0000c0 25 ec 4e 3e 25 41 ef bf 6e 3a c1 3d d7 76 e6 be
       0.2020727 -1.8691756 0.09434973 -0.45012543
0000d0 fd a4 7f 3f fc b9 e1 bc a8 c7 58 3e 6b 64 d4 3d
       0.9986113 -0.027554505 0.21169913 0.10370716
0000e0 d2 0b d4 3e be 74 b5 3e 6b 52 04 bf ce d4 cd bd
       0.41415268 0.3544063 -0.5168826 -0.10050355
0000f0 da a1 b0 3e ce ec 6f bf 4a c9 1b 3f e0 ec e9 3d
       0.34498483 -0.9372071 0.6085402 0.114221334
000100 04 8b 44 3f 17 96 20 be db fb a8 3d 6b ef 60 be
       0.7677462 -0.15682255 0.082511626 -0.2196633
000110 e9 1b 37 3e 5e 0c 81 bf d7 9d 52 3e 07 51 24 3e
       0.1788174 -1.0081899 0.20568024 0.16046534
000120 52 3e 7e bf 3d 91 26 3f b4 7a 5c bf 0a b2 2e bf
       -0.99313843 0.65065366 -0.8612473 -0.68240416
000130 ef d4 be 3e 33 bb 2e bf 30 23 c8 be a7 fa 81 3f
       0.3727183 -0.68254393 -0.39089346 1.0154618
000140 d7 c0 0a be 7f 88 05 3f b2 9e 70 bf b7 7e 0b 3f
       -0.13550125 0.521614 -0.9399215 0.54490227
000150 9a b5 82 3e 93 ab c4 3e 4f 64 c2 be fc 30 01 3d
       0.25529176 0.3841215 -0.37967154 0.031540856
000160 a0 dc 09 3e 30 94 bd 3e 4c 7c 65 bf 52 1d 04 bf
       0.13463068 0.3702712 -0.89642787 -0.5160724
000170 2d db f9 3e 31 e4 82 be 7b 56 c7 be b3 f3 f3 3e
       0.4880003 -0.2556472 -0.38933167 0.47646865
000180 43 9c b5 bd 27 ad 11 3f d6 55 59 3f f9 25 c3 bf
       -0.08867695 0.56904835 0.848966 -1.5245963
000190 69 14 ad 3d aa 2a c5 be ac 70 21 3f 5d 89 2c be
       0.084511586 -0.38509113 0.6306255 -0.16849275
0001a0 ad 57 20 3f 86 1b 2e bf 6a 12 ba 3e 20 4e 27 3e
       0.6263378 -0.6801075 0.36342174 0.16338396
0001b0 fa 92 52 be b6 35 89 bf 26 24 13 3e c9 1a 26 3f
       -0.2056388 -1.0719516 0.14369258 0.6488462
0001c0 fe 81 95 be 2e c9 dd 3d 91 b3 91 3e 0a 7a 1c 3c
       -0.2920074 0.108293876 0.2845731 0.009550581
0001d0 e0 f2 b2 3d dc 46 77 3f b1 8a d6 be 11 5d c9 3f
       0.08737731 0.965925 -0.41902688 1.5731527
0001e0 5f cc 95 3f 33 1c 77 bf 2d a4 d9 bc 95 6d 84 3e
       1.1702994 -0.96527404 -0.026567543 0.25864854
0001f0 cf 5d 62 bf d0 76 bc 3f fb 82 98 be 44 3d af 3f
       -0.8842439 1.4723759 -0.2978743 1.3690572
000200 aa 06 46 be c7 18 ad 3e 60 d0 2d 3f 5f ae c8 be
       -0.1933848 0.33807966 0.6789608 -0.39195535
000210 e9 e9 98 be fb 72 c6 3f 39 54 c6 3c cf c6 96 be
       -0.2986596 1.5503839 0.024210082 -0.29448554
000220 b2 c3 dd 3f ca 01 06 c0 19 00 fb be 14 49 b6 be
       1.7325346 -2.0938592 -0.49023512 -0.3560263
000230 c8 3e b3 3d 56 0f f9 3c fb 9d 87 bf 40 06 a7 bf
       0.08752209 0.03040282 -1.0595087 -1.3048782
000240 48 7d 0b 3e 7d 52 b5 be 00 2f e8 be 8f 0d 3d be
       0.1362201 -0.35414496 -0.45348358 -0.18462203
000250 bd d4 99 bf f3 e5 31 bf 63 75 36 3f e4 fb 59 bf
       -1.2018048 -0.694915 0.7127287 -0.8514998
000260 91 76 23 bf ea 59 87 be 2d 16 e5 be bf f2 01 bf
       -0.6385279 -0.26435786 -0.4474348 -0.50761026
000270 af 74 ad bf df 6c d8 3f 2f 40 94 3f f0 09 98 bf
       -1.3551234 1.6908225 1.1582087 -1.1878033
000280 2b 8e bf 3e 29 ec dc bf 21 29 51 be 69 91 61 bf
       0.37413153 -1.725957 -0.20425846 -0.88112503
000290 a6 1c e9 be 43 1d 03 bf b1 2e 2c 3f 8a b3 3b 3f
       -0.4552967 -0.51216525 0.67258745 0.7332083
0002a0 3c a1 5f be ad 70 b1 3e f0 df 58 3c d7 35 a1 3f
       -0.2183885 0.34656277 0.013236985 1.2594556
0002b0 01 b1 d1 3f 7f ee e3 be 95 73 48 bf aa 7c dd be
       1.6382142 -0.44517896 -0.78301364 -0.43259174
0002c0 4d cc b3 3f f5 7c 84 3f 52 4b 01 bf e1 1c a6 3f
       1.4046723 1.0350634 -0.50505555 1.2977563
0002d0 2e fc 69 3e fa 2e 30 be 19 55 b7 be 39 aa e1 bd
       0.22850105 -0.1720542 -0.35807112 -0.110187955
0002e0 5c 25 1a bf f7 c4 03 3f 2c 05 94 be a7 14 18 3f
       -0.60213256 0.5147242 -0.28910196 0.5940651
0002f0 b5 6b dc 3e 39 2f 2c bf 0c c3 1a 3f b6 8a ff 3e
       0.43050924 -0.67259556 0.6045387 0.49910516
000300 18 f4 3f 3f 9e f4 a1 3f 73 f8 7e 3d 0e b5 87 3f
       0.7498183 1.2652776 0.06224866 1.0602129
000310 c4 49 d2 be cd 19 9d 3f 3c 0b 74 bf 77 90 84 3e
       -0.41071904 1.2273499 -0.9532964 0.25891468
000320 52 53 4a be 11 84 e9 3e 91 56 49 3e e0 a2 0d bf
       -0.19758347 0.4560857 0.19661929 -0.5532665
000330 4b 70 fd 3e 0e 90 ba be 1a 22 41 bf ef 4e 31 bf
       0.49499735 -0.3643803 -0.7544266 -0.6926107
000340 22 08 de 3e be 68 d2 bc b1 2c 06 bd e6 08 30 3e
       0.4336558 -0.02568471 -0.032757465 0.17190894
000350 f6 2c cc 3e 2b ae 46 3b 60 01 79 bf bd 0e 5c bd
       0.39878052 0.0030316215 -0.97267723 -0.053724993
000360 26 84 a0 3f 3d 0b 5e 3f 1c 36 48 3e 91 1c 53 3f
       1.2540329 0.867359 0.19551891 0.82465464
000370 5e 90 a9 bd a6 78 90 3e c7 de 0c bf 99 40 8e 3f
       -0.08279489 0.28217047 -0.5502743 1.1113464
000380 21 3b 64 be 3e 7a b6 bd b1 9e 7c be 28 f6 e9 3e
       -0.22288181 -0.089100346 -0.24669911 0.45695615
000390 c3 73 f1 bd a8 2a ac 3e a4 6f ce 3f 90 bb 14 3e
       -0.11789658 0.33626294 1.612782 0.14524674
0003a0 89 d5 ec 3e 5d 39 7f 3e a4 16 85 3e bb 9b 9b 3f
       0.46256664 0.24924226 0.25993836 1.21569
0003b0 3a ff 81 be 00 47 56 3f ff 14 8b 3f d7 ee be 3e
       -0.25390035 0.8370209 1.0865782 0.37291595
0003c0 e7 74 bb 3d ee 29 22 3f a1 3e b1 be 10 b4 d3 3e
       0.09153157 0.6334523 -0.34618095 0.41348314
0003d0 63 77 26 bf d6 b2 d9 3f b1 39 9a bf 99 dd f4 bf
       -0.6502592 1.7007701 -1.2048856 -1.9130126
0003e0 1c de 90 3f 0d 82 c5 bf 23 9b 27 bd 82 26 16 bf
       1.1317782 -1.5430313 -0.040919434 -0.5865251
0003f0 e9 0f 62 3f a4 12 6e be 1f e0 09 be 34 63 4c 3c
       0.88305527 -0.23249298 -0.13464402 0.012474824

1.weight_ih_l0 f4 [512, 256]
000000 9e ec 14 bd cf 26 d0 bc c0 63 fc bc 8d 68 ce 3d
       -0.03635847 -0.02540913 -0.030809283 0.10078535
000010 63 56 85 bd 2d e9 7b 3d 17 cd ce 3b f9 25 fe bd
       -0.065106176 0.06150167 0.0063110697 -0.124095865
000020 8e b5 36 be 2d 05 ac 3d 92 31 d8 3b db 8b 00 3e
       -0.17842695 0.08399425 0.006597706 0.1255335
000030 fc 07 1b 3d 23 28 6c bd a1 d1 1c bd 3e 5f de 3b
       0.03784941 -0.057655465 -0.038285855 0.006786256
000040 40 2a 5f 3d ee 13 d8 bd fe bc f4 3c 59 26 0d 3d
       0.054483652 -0.10550676 0.029875275 0.0344604
000050 aa a8 01 bd 45 ac 13 3d c2 eb 00 bd 36 5d 40 bd
       -0.03165499 0.03605296 -0.031474836 -0.046963893
000060 1c c4 f8 bd ef 00 0e bd 63 24 d7 bd c0 78 05 3e
       -0.1214678 -0.03466886 -0.10504987 0.13034344
000070 e8 ae 0e be c5 10 25 3d 00 8d 35 be 0e ee f2 3d
       -0.13933909 0.040299196 -0.17729568 0.118618116
000080 41 f1 db 3c 52 b6 13 be fc cf 1f 3d 59 2e 7a 3e
       0.026848437 -0.14425018 0.03901671 0.24431743
000090 48 4f 87 bd d9 ae 1b bd df b5 32 be 4c 6d 33 bd
       -0.066069186 -0.038008545 -0.17452191 -0.043805405
0000a0 d5 21 bf 3c 55 fd 16 bd 1b 1a 13 3e 79 4b 28 3e
       0.023331562 -0.03686269 0.14365427 0.1643504
0000b0 9f 04 aa 3d d7 d3 05 be e2 c1 95 3d b8 fc b5 bd
       0.08301663 -0.13069092 0.07312371 -0.08886093
0000c0 db e3 7c 3c 6f c3 dc 3d 89 c8 23 be 27 f9 ae bd
       0.015435184 0.107794635 -0.15994467 -0.08543616
0000d0 8e e8 11 3d c7 76 d9 3d dd c7 e1 bd d6 50 8d be
       0.035622172 0.10618358 -0.11024449 -0.27600735
0000e0 4a a1 97 bc 26 2d 4e 3d ca ad 5a be c9 97 46 3d
       -0.018509526 0.050336026 -0.21355358 0.048484597
0000f0 72 ef 76 be 96 70 26 3e eb cc 94 3d e2 8c 0f bd
       -0.24114779 0.16253886 0.072656475 -0.035046466
000100 5e 48 10 bd 82 91 18 be ab f0 91 3c d8 4d 12 39
       -0.035225265 -0.14899257 0.017814955 0.00013952644
000110 3b ad 99 3d db a1 93 bd ee c6 b1 bd f7 10 1d bd
       0.07503744 -0.07208606 -0.08680521 -0.038346257
000120 64 9b 3d be 34 8a 15 bc 9d 93 09 3e 9f 35 8c bd
       -0.18516308 -0.0091271885 0.13435216 -0.06846165
000130 c4 93 79 3e 46 d3 fa bd f9 09 99 bc 3a 81 21 3d
       0.24372774 -0.122473285 -0.018681513 0.03942988
000140 6f 6f a2 3d 5d 67 51 3d 71 4f 2d 3e 0f 2a cb 3d
       0.079314105 0.051123966 0.16924836 0.099201314
000150 db 9f 7e be 3c e0 83 3d b7 24 86 3b a5 9d 60 bd
       -0.24865668 0.06439254 0.004093732 -0.05483784
000160 e9 18 44 3d 42 e2 8a bd 83 1f 3a 3e f0 6a f0 3c
       0.04787532 -0.067814365 0.18176083 0.029347867
000170 5a 0e f0 3d f9 c9 2e be 9f 03 d6 bd 59 b5 35 3c
       0.11721487 -0.17069234 -0.104499094 0.0110906
000180 b9 84 69 bd 12 54 6a bc 6b de ca 3d a0 ac 9c 3d
       -0.05701134 -0.0143022705 0.09905704 0.07650113
000190 2e 97 38 bd 1b e6 56 3a 0e fe 17 be 39 a1 26 3e
       -0.04506605 0.00081977405 -0.14843008 0.16272439
0001a0 b5 58 db bd 37 f3 81 3d bb 53 c0 3e de 0f 4e 3d
       -0.10710279 0.06345218 0.3756388 0.0503081
0001b0 70 6b 24 3e ba d1 92 3d 35 52 cb 3d 09 6b 80 bd
       0.16056609 0.071689084 0.09927789 -0.06270415
0001c0 67 0f 41 be a3 a6 64 bc a8 25 5b be 98 2d bc bc
       -0.18853532 -0.013955745 -0.21401083 -0.02297096
0001d0 bd 96 fd bd 8a 46 c2 3d 6b 2e 9b bb a3 e4 0f bd
       -0.12382267 0.094861105 -0.004735758 -0.035130154
0001e0 d6 59 92 3d 71 19 15 3d 50 4d e4 3d a8 c3 ac bc
       0.07146041 0.036401216 0.11147559 -0.02108939
0001f0 f7 04 86 3b 02 c1 7d 3e 50 9b 9e 3d cb 19 10 3e
       0.0040899473 0.24780658 0.07744467 0.14072339
000200 e9 e5 0f bd d1 2b 10 3e 49 cd b0 bd 9f d8 c5 3c
       -0.03513137 0.14079215 -0.08632905 0.024151145
000210 6e 59 c2 3d 39 75 a0 bd ab 0f f2 bd 7f de 65 3d
       0.094897136 -0.078348584 -0.11819395 0.056120392
000220 ba 26 4f 3d 96 d2 c5 b9 6f ea af 3d 26 71 3a be
       0.050574042 -0.00037731667 0.085896365 -0.18207225
000230 f2 3d 9b 3d be 3f 0b 3e 4c 74 61 3b c4 a6 e1 bc
       0.075801745 0.13598534 0.0034401594 -0.02754534
000240 e9 50 f1 bd 01 1e f0 bd 47 4e 9f 3a 3d 26 56 3d
       -0.117830105 -0.11724473 0.0012154066 0.05228256
000250 27 76 9b be 1d dd 19 be e7 d4 52 3e ab 27 94 3c
       -0.3036358 -0.15025754 0.20589028 0.018085321
000260 77 e8 a5 3d 7a 61 bb bc e0 70 4b 3e 1d 06 dd 3c
       0.0810098 -0.022873629 0.19867277 0.026980454
000270 75 04 1e bd bb 3c fd bd da 77 5f 3d bd 54 53 3b
       -0.03857847 -0.12365099 0.05455766 0.0032246553
000280 7d 62 08 bd bb 59 3c bd b4 cd 16 3d 81 64 21 bc
       -0.03329705 -0.04598401 0.036817268 -0.009850622
000290 75 f5 8b bd 33 88 3f 3d f6 26 b2 bc 5a 57 2e 3e
       -0.068339266 0.04676075 -0.021747094 0.1702551
0002a0 f6 9f 3c bd e4 92 b1 3d 09 57 87 bc 69 8d 63 bd
       -0.04605099 0.08670595 -0.016520994 -0.05555478
0002b0 6f 30 7e bd 57 8d 88 bd c3 5e 63 3d f4 60 8b 3d
       -0.06205791 -0.066675834 0.055510294 0.06805602
0002c0 c8 1e de ba b7 fa 24 3e 64 2c 99 3e 41 11 1b bc
       -0.0016946429 0.16111265 0.2991668 -0.009464563
0002d0 10 05 8f 3a 04 82 a9 bc bf e3 6d 3d 6c f6 91 bd
       0.0010911543 -0.02069188 0.058078524 -0.07127079
0002e0 c7 9f 35 be ee d7 39 3e 9f 4d e2 bc 1b 5c 34 be
       -0.17736731 0.18148777 -0.027624903 -0.1761326
0002f0 34 75 90 bc 87 4f 2f be f0 10 b2 3d db 8c 3a 3c
       -0.017634012 -0.17120181 0.08694637 0.011386122
000300 5a 1a a8 bd 7a 78 d5 bd b3 68 80 3e 00 da d2 bd
       -0.08208151 -0.1042337 0.2507988 -0.102954865
000310 eb 7b d2 3d 6d fa 0e 3e 53 8f bb bd 9a b0 c5 3c
       0.10277542 0.13962717 -0.09158196 0.024132062
000320 8c fe de 3d f2 33 a4 bd 86 be 1e 3e 79 b8 e7 bd
       0.10888395 -0.0801772 0.15502366 -0.11314482
000330 d1 2e 14 3e 35 15 86 3b a2 8f 34 3e 92 96 a3 bd
       0.14470984 0.0040918835 0.17632917 -0.079877034
000340 f5 33 01 3e fb 14 99 bb 40 64 f8 bc 70 92 c3 bd
       0.12617476 -0.0046716905 -0.03032124 -0.09549415
000350 98 f5 2c 3e b0 40 21 3d 3c 6f 37 be a7 eb d5 3c
       0.16890562 0.03936833 -0.17913526 0.026113344
000360 bd c0 04 bd 62 75 6e bc 52 61 2f 3d 2f 14 be 3d
       -0.032410372 -0.014554353 0.04281742 0.092811935
000370 83 55 d7 bd a5 8c 53 3c cc 33 b6 bd bf 37 20 be
       -0.10514357 0.01291195 -0.08896598 -0.15646265
000380 df 52 a1 bb 8d 8e be 3c ee 62 29 3c 59 c3 c9 3d
       -0.004923209 0.023261333 0.010338528 0.09851713
000390 62 2b a6 3e 59 55 16 3e 5a cd c4 3d a5 79 00 3d
       0.32454973 0.14680995 0.0960948 0.03136601
0003a0 da 73 e4 bd 46 cc 8d 3d 90 bf 35 3e 0b f9 c1 bd
       -0.111549094 0.06923728 0.17748857 -0.09471329
0003b0 12 7c f6 bd 5b 88 bb bc aa 89 6f be 55 9b ca bc
       -0.12035383 -0.022892168 -0.23392358 -0.024732271
0003c0 e5 93 2c be f4 d2 73 3e 30 91 ce bd 85 ac a4 3d
       -0.16853292 0.23810941 -0.10086286 0.08040718
0003d0 f3 ef 3a bd 6f 8f d7 3d c7 5f 07 bd 76 cb 1f 3c
       -0.04563899 0.10525405 -0.033050325 0.009753099
0003e0 ca 19 e9 3d 77 db 92 bd 9c b3 5c bd 25 a8 96 bc
       0.11381872 -0.07170766 -0.053882226 -0.018390724
0003f0 60 1c 32 3e cd 4c 4b 3d a7 6d 3d 3d 3e 40 76 bb
       0.17393637 0.04963379 0.04624715 -0.0037574912

1.weight_hh_l0 f4 [512, 128]
000000 21 b9 e1 3d f4 22 3a bd 86 cd 6c be a6 f6 ee 3e
       0.11021639 -0.04544349 -0.23125276 0.46672553
000010 83 03 b3 3e eb 4a 58 bd 73 58 5e be 3e f8 9f 3e
       0.34963617 -0.052805822 -0.21713428 0.3124408
000020 bf fc c2 be 30 41 07 be 35 73 21 bd 8c 40 23 bf
       -0.38083455 -0.13208461 -0.03941651 -0.63770366
000030 6d 77 c3 3e 39 f4 c1 3d 1c 63 ab 3e a8 8a 43 be
       0.38177052 0.0947041 0.33474052 -0.19095862
000040 4b d4 87 be 08 1d 92 bd bd c0 93 be ca e4 65 bd
       -0.26529154 -0.071344435 -0.28857985 -0.056126393
000050 08 6b 6a be 4f fb 3f be 6b 67 49 3d f5 40 a6 be
       -0.22892392 -0.1874821 0.049170893 -0.32471433
000060 95 2f e0 3d b0 64 8f be 51 28 2d be 2e cd f2 bd
       0.109465756 -0.28006506 -0.1690991 -0.11855541
000070 42 3c 98 b9 f9 39 a8 be af 9d bb bc 07 eb b6 3e
       -0.00029036595 -0.3285673 -0.022902338 0.35726187
000080 d1 a8 68 3e 5c d2 f8 be a2 05 05 be b0 d2 4e bd
       0.22720648 -0.4859799 -0.1299043 -0.050493896
000090 31 ce 1a 3e d9 93 5f be 07 09 d9 be 9b e3 cd be
       0.15117718 -0.21833743 -0.423897 -0.40212712
0000a0 35 8c 43 bd 31 b9 9c 3e 0e e8 2a be b3 bd 4a be
       -0.047741134 0.3061004 -0.16690084 -0.19798927
0000b0 60 4b b9 3d a6 9a 8d be 37 44 fa 3d a8 5c b0 ba
       0.0904758 -0.2765705 0.12220042 -0.0013455348
0000c0 61 1d 2f bd b0 b1 f6 3d c2 38 80 3e 1a 22 fd bd
       -0.042752627 0.1204561 0.25043303 -0.1236002
0000d0 be 01 10 bd 4d 04 3f be 97 df 42 3e 78 3a b9 3d
       -0.03515791 -0.18653984 0.19030605 0.09044355
0000e0 bc 34 77 3e 5b 18 c2 3e 91 b9 ee bd 5a b4 cc be
       0.2414121 0.37909207 -0.11656488 -0.39981347
0000f0 6f 55 19 be 72 cc 49 be 70 0c 03 bc 63 42 d3 be
       -0.14973997 -0.19706896 -0.007998571 -0.41261587
000100 e2 50 e0 bd f9 ad a1 3d ca 3d bd 3d 25 ed 5d 3e
       -0.10952927 0.07894511 0.09240301 0.21672495
000110 a3 33 9e bd 96 58 96 3e e6 e7 53 be 3d 4a 9d be
       -0.07724693 0.2936446 -0.20693931 -0.30720702
000120 0c 29 ed bd 1b d4 95 be 86 6a 07 3e 1a fb 2b be
       -0.11580095 -0.29263386 0.13224229 -0.16795006
000130 38 95 eb be 7f f2 04 3e f2 6b f2 3d 6e b8 1e 3f
       -0.46012282 0.1298313 0.11836995 0.6200017
000140 f0 a1 00 3e 9b 44 9d bd 24 3c 73 3d 5d 8c f2 3e
       0.12561774 -0.07679101 0.059383526 0.47372714
000150 a4 69 17 3d 4b bc f7 bd 07 f9 a4 3d 16 d9 38 3c
       0.03696598 -0.12096461 0.08055311 0.011282226
000160 87 0e ac bc 09 a7 8e 3e ef 95 07 bf a9 1a 25 3f
       -0.02100302 0.27861813 -0.52963156 0.64493805
000170 4c 38 d1 3c a6 2e 9a 3e 2b a6 c0 3e 55 19 aa 3e
       0.02553954 0.30113715 0.37626776 0.33222452
000180 3a 8e e8 be 40 23 86 b9 81 a0 3c 3e d8 de a1 3e
       -0.4542101 -0.00025584735 0.18420602 0.3161533
000190 cd 1c 82 be 2e c2 11 bd 75 f1 10 be 7a f8 ac bd
       -0.25412598 -0.035585575 -0.14154609 -0.08445831
0001a0 c3 de 18 be 56 d9 e3 be 4d e6 7b be ca 3e b2 3e
       -0.14928727 -0.44501752 -0.24599572 0.3481353
0001b0 51 ca 21 bd f4 17 ee ba f5 f1 92 3d ea f6 04 3e
       -0.039499585 -0.0018165098 0.07175056 0.12984815
0001c0 a3 a3 5c be 19 03 eb 3e 52 01 8d be 3a 16 12 be
       -0.21546797 0.459008 -0.2754007 -0.14266291
0001d0 89 cd ef bd 84 d0 85 be e4 1a c3 3d 97 fc f1 3d
       -0.117091246 -0.26135647 0.09526613 0.11815756
0001e0 3b 65 bb 3e c0 6e 5f be c4 24 22 3e f4 25 7b 3e
       0.3660067 -0.21819592 0.15834337 0.24526197
0001f0 3e 63 31 3d cf 08 95 be dd 6f cd 3d 50 ff e5 3d
       0.043307535 -0.29108283 0.10031102 0.112303376
000200 3f ca 79 be 18 f7 86 3e 91 cf 2d 3e 6e 04 3f bd
       -0.24393557 0.26360393 0.16973712 -0.046635084
000210 7d 73 8b 3e af e3 59 be 35 a9 00 bd c3 b1 2d be
       0.27236548 -0.2127826 -0.03141137 -0.16962342
000220 ea 2d d0 bd 4b ca 45 be 6b b7 b1 bd d2 64 18 be
       -0.101650074 -0.1931545 -0.08677562 -0.1488221
000230 0f 0f 0d 3e 9e 51 40 be 30 3d 2d 3e 15 da 6b 3e
       0.13775276 -0.18781134 0.16917872 0.2303241
000240 18 d7 18 be 69 2c 9a 3e a3 af 8c 3d 55 b9 f2 bd
       -0.14925802 0.30112007 0.068694375 -0.118517555
000250 a3 4a 13 bf 94 98 1b 3f 20 fe a4 be 0d 60 4a be
       -0.5753576 0.6077969 -0.32225132 -0.19763203
000260 40 c6 48 be c4 fa 00 3e ee 75 fe 3e 86 7c 10 3e
       -0.19606876 0.1259566 0.49699348 0.14110002
000270 83 4a 62 be 4f 15 4f 3d 2c 7c 0b 3e fc ff 46 bd
       -0.22098736 0.05055743 0.13621587 -0.04858397
000280 0b 40 7e be 74 78 91 3e a7 12 52 be 5c 87 88 be
       -0.24829118 0.2841221 -0.20514928 -0.2666577
000290 79 d5 e0 bd 73 89 ee 3e 54 b1 d6 3c e9 9c 7f 3e
       -0.10978217 0.4658924 0.026207604 0.249622
0002a0 f7 4a f7 be 54 40 a2 3d c0 eb 06 3f 32 e9 da be
       -0.4829938 0.07922426 0.52703476 -0.4275604
0002b0 91 12 ad 3e 2e a3 1b bd 17 db 66 be 04 d7 e5 bd
       0.33803228 -0.037997417 -0.22544514 -0.112226516
0002c0 48 ff b1 3d 89 4e be 3d 22 f4 3f 3f 05 24 1e 3e
       0.08691269 0.09292323 0.7498189 0.15443428
0002d0 83 0f 4e be 45 cd 4b 3d 20 1f cf 3d 86 61 c6 3d
       -0.20123105 0.049756307 0.101133585 0.0968657
0002e0 31 93 d0 3d 3b 5f ef 3d ad d8 97 bd ac 52 ad 3e
       0.101843245 0.11688086 -0.074143745 0.33852136
0002f0 13 1a 56 3e 7a cc 98 3e ba 81 d5 be 5f 86 9a 3e
       0.20908384 0.29843503 -0.41700536 0.30180642
000300 1e 14 92 3e 1a fb 86 3e 18 e7 0f 3f e7 1c 43 be
       0.28530973 0.2636345 0.56211996 -0.19053994
000310 7e b2 a1 3e 7e 09 40 3e 1c 6d 5e 3e 2d 8e 1e be
       0.3158149 0.18753621 0.2172131 -0.15483923
000320 c8 4e 01 3f 2a dd fe 3e ed 9b 26 3d fe eb 1f 3e
       0.50510836 0.4977811 0.040676046 0.15617368
000330 c3 61 25 3f 72 31 be be 94 89 ba bd a7 7b 72 bd
       0.646023 -0.371471 -0.09108272 -0.059199955
000340 04 80 74 3c 9b 60 b5 3c 33 05 f9 3e 34 16 6e 3e
       0.014923099 0.022140792 0.4863678 0.23250657
000350 83 2d af be 8e e6 1e 3f 2e 88 84 be a0 73 a1 bc
       -0.3421441 0.6207055 -0.25885147 -0.019708455
000360 f9 58 05 3f eb 07 f3 bd 8a 6b d3 3c 31 57 d0 3e
       0.52088886 -0.118667446 0.025808115 0.40691522
000370 bd ba ba bd 9d 0e aa 3d c3 03 d0 3d e7 46 83 3e
       -0.09117649 0.083035685 0.101569675 0.25640032
000380 98 24 4f 3d f0 e4 ce be 77 0b a3 be 51 65 0c 3e
       0.050572008 -0.4040904 -0.31844684 0.13710524
000390 ed 5e 29 bd 16 81 93 3e 60 04 7a be 0a f9 56 3e
       -0.041350294 0.28809422 -0.24415731 0.20993438
0003a0 54 2b 17 be 7e 2f 1c 3e e7 35 02 be 4c 6a 5b 3e
       -0.14762622 0.15252492 -0.12715875 0.21427268
0003b0 0b cf 37 3e d6 ca 23 be 84 2d 51 be 39 09 3e be
       0.17950074 -0.15995345 -0.20427519 -0.18558206
0003c0 90 76 c3 be 69 e1 e4 bb 44 a5 a1 3e de b7 6d 3a
       -0.38176394 -0.006984879 0.315714 0.0009068231
0003d0 3e 99 9b bc df 0a 53 be 76 e1 1c 3e 7f 6a a3 3e
       -0.01899397 -0.20609616 0.15320382 0.31917188
0003e0 22 46 ae be cc e8 e0 3e 9d de 4d be 36 fc e0 be
       -0.34037882 0.4392761 -0.20104451 -0.43942422
0003f0 91 4d 7e 3e 72 cb 40 bd 33 33 b9 3d 7f 5e 22 3f
       0.24834277 -0.04706902 0.090429686 0.6342544

1.bias_ih_l0 f4 [512]
000000 8f c4 3b 3e 2d 04 27 3e a3 1a ca 3d 98 8d 10 3e
       0.183367 0.16310187 0.09868362 0.14116514
000010 b1 6b 57 3d fd 56 5f 3e 2c e2 47 3e 50 d3 60 3e
       0.052592937 0.21810527 0.19519871 0.2195561
000020 47 11 5e 3e a3 99 d0 3d 3e 67 39 3e f8 21 f2 3d
       0.21686278 0.10185554 0.1810579 0.11822885
000030 19 6f 02 3e 4f f4 30 3e 46 ec fd 3d 0d 77 e9 3d
       0.12737693 0.17280696 0.12398581 0.1139966
000040 f8 3b 94 3e a5 3b d6 3d 68 4c 68 3d ef da 4d 3e
       0.28952003 0.10460595 0.05671349 0.20103048
000050 37 7b 79 3e 99 28 2c 3e b5 59 1e 3e ca a6 30 3e
       0.24363409 0.16812362 0.15463908 0.17251125
000060 4c 5b 05 3e 1f 94 3e 3e 68 29 e8 3d 70 dd b6 3c
       0.13023108 0.18611191 0.113360226 0.022322387
000070 13 7c 20 3c e6 58 49 3d 71 48 65 3d f8 55 14 3e
       0.009795207 0.049157046 0.05597729 0.1448592
000080 50 67 a9 3d e1 c2 1f 3e f0 6d b7 3d 5a 69 04 3e
       0.082716584 0.15601684 0.08956516 0.12930813
000090 ea a6 3d 3e dc be 72 3e 44 bd 36 3e 03 8c 3c 3e
       0.18520704 0.2370562 0.17845637 0.18412785
0000a0 9c b0 09 3e 08 42 77 3e f9 0b d9 3d 65 1c 3f 3e
       0.13446277 0.24146283 0.10597987 0.18663175
0000b0 36 97 11 3e 6a 94 fa 3d ab 95 35 3e da 6c 45 3d
       0.14217839 0.12235339 0.17732875 0.048199512
0000c0 23 38 80 bc da d1 df 3d 12 35 17 3e 26 86 09 3b
       -0.015651768 0.10928698 0.14766338 0.00209845
0000d0 26 4e 06 3e 94 62 b8 bb 80 92 15 3e 08 98 10 3e
       0.13115749 -0.005626986 0.14606667 0.14120495
0000e0 66 9c 43 3e 75 da 77 3d 2c c1 f7 3c 12 97 2d 3e
       0.1910263 0.06051107 0.030243479 0.1695216
0000f0 3e 6f fe 3d b6 e8 b2 3d c7 95 ab 3e 2a c2 6a 3e
       0.124235615 0.08735792 0.3351271 0.2292563
000100 90 80 30 3e 39 4c 23 3d a8 1e c9 3c 56 78 9a 3d
       0.17236543 0.039867613 0.02455075 0.075424835
000110 dc 24 85 3d 41 c6 ff 3d 00 2c 3e 3e 8d ec 1e 3e
       0.06501171 0.12488986 0.18571472 0.15519924
000120 b9 66 de b9 64 5e 80 3e ed c7 a9 3d 4e 67 04 3e
       -0.00042419674 0.25072014 0.08290086 0.12930033
000130 43 4b ae 3e 38 8e 8a 3d 5f 09 3d 3e 8e db 73 3e
       0.34041795 0.06765407 0.18460606 0.23814222
000140 54 84 5d 3e b2 79 63 3d 1d f3 68 3e 9e ea 28 3e
       0.2163251 0.05553598 0.2274899 0.1649575
000150 20 3d 43 3e c1 09 6f 3e e2 f2 29 3e 86 b4 c6 3d
       0.19066286 0.23343565 0.16596559 0.09702401
000160 3a 58 04 3d 8d 88 85 3e f3 b6 3a 3e d4 d4 d8 3d
       0.032310702 0.26080742 0.18233852 0.10587469
000170 7e a4 27 3e dd e4 99 3d ef f4 a4 3e 9f 8c 1e 3e
       0.16371343 0.07514355 0.3221812 0.1548333
000180 ac 78 3b 3e e8 c8 95 3e 9c 42 22 3e c3 f1 90 3e
       0.18307751 0.29254842 0.15845722 0.2830945
000190 df 1a da 3d 04 fe 38 3e bf c8 b0 3e f4 65 13 3e
       0.106496565 0.1806565 0.34528157 0.14394361
0001a0 8b 9f f1 3d ab 1d eb 3d ba 73 16 3e bb ec 67 3d
       0.117980085 0.11480268 0.14692584 0.05662225
0001b0 62 59 69 3e a3 84 dc 3d 57 01 23 3e 4f 0d 4f 3e
       0.22788003 0.10767486 0.1591848 0.2021992
0001c0 2c 61 17 3e 3d 5c 20 3e af d3 a4 3e 58 28 6c 3e
       0.14783162 0.15660186 0.32192752 0.23062265
0001d0 a0 7c 9f 3d 1d e7 dd 3d 05 0e a3 3d 55 ad 86 3e
       0.07787442 0.10835097 0.079616584 0.26304117
0001e0 f2 9b 64 3e 88 db 9b 3e b2 2a b7 3d 2f ba 92 3e
       0.22325113 0.30440927 0.0894369 0.28657672
0001f0 7e 09 92 3e 04 93 29 3d 14 4e da 3d 57 dd 8d bc
       0.28522867 0.04139997 0.106594235 -0.017317457
000200 66 ee 38 3d 14 6f 9a bc be 7a f2 3c ad 66 75 bc
       0.04514923 -0.018851794 0.029599544 -0.014978093
000210 b3 4d db bd ac 08 5a bd 76 30 5a 3d ea 19 c9 3d
       -0.10708179 -0.053230926 0.053268872 0.09819396
000220 78 a8 81 bd 50 30 49 bd 24 2a 4b bd b3 c0 75 3d
       -0.06330961 -0.04911834 -0.049600735 0.059998225
000230 91 c4 dd 3d 6f a0 a7 3d e4 12 9b bd a9 a4 70 bd
       0.10828508 0.08184897 -0.075719625 -0.058750782
000240 42 d4 10 3e 22 9f a1 3c a1 13 a0 3d fc 5e 0f 3d
       0.1414347 0.0197292 0.07816244 0.035002694
000250 5d 76 1d 3c 68 90 3e 3d c7 06 8a 3e 82 83 58 3d
       0.00961074 0.046524435 0.26958296 0.05285979
000260 55 f9 26 be 27 7a 3a be 06 18 41 be 78 de df 3d
       -0.1630605 -0.1821066 -0.1885682 0.109311044
000270 05 28 37 3d 2f f5 b7 bd 1e f9 b6 3c 86 e8 91 3d
       0.0447159 -0.08982312 0.022335585 0.071244285
000280 47 93 d2 3c 30 21 cf 3d be 6d ba 3d 46 da b0 3c
       0.025704993 0.10113752 0.09102963 0.021588456
000290 9c 61 dd bc 50 bc 21 3e 9a 29 94 3c 16 83 db 3d
       -0.027024083 0.15794492 0.018086243 0.10718362
0002a0 b3 1e f2 bd 7d 0b a7 3d cf a8 9c bc 3e 54 48 bd
       -0.11822262 0.08156488 -0.019123463 -0.048908465
0002b0 51 e6 c5 3d b1 c6 f3 3c 83 30 ae 3c 8f 08 50 bd
       0.0966307 0.02975783 0.021263367 -0.050789412
0002c0 1c 5c 06 3e 2a f2 30 bd 28 d2 3d 3d b2 05 80 3d
       0.13121074 -0.043199696 0.046343 0.06251086
0002d0 be 23 c8 3c 93 b4 ab bd ca f8 19 bc 24 48 24 bd
       0.024431106 -0.08384051 -0.009397695 -0.04010786
0002e0 c3 bd aa 3c 6c 52 88 3d 41 e1 37 3e 0e 55 b0 3d
       0.020842439 0.06656346 0.17957021 0.08609973
0002f0 b8 06 5a bc 97 41 8f 3c 33 a5 4a be d8 6c 0a 3d
       -0.013307266 0.01748733 -0.19789581 0.033795208
000300 25 85 bd bd cd 31 93 bd 7c 9a ee 3c 1d af 2b 3e
       -0.09253911 -0.07187233 0.029126398 0.16766019
000310 bf 6f 5e 3d 70 fd 4e bd 1f cb 29 3e ae 6d 16 3c
       0.054305788 -0.050534666 0.16581391 0.009181423
000320 5e 8f ea 3c 26 07 40 be c7 28 5f 3d 1b d1 0d 3e
       0.028632816 -0.18752727 0.054482248 0.13849299
000330 d8 5a 56 be 20 64 b3 3c 86 fa 4a bd ae 2f cf 3c
       -0.20933092 0.02189833 -0.049555324 0.02529129
000340 69 2c c7 3d 56 3e ba 3d 13 05 ef bd bc 70 24 bd
       0.097252674 0.09093921 -0.1167089 -0.040146574
000350 ab d4 0f bb 03 bf 70 3b 9f c6 36 bc 09 8d bb bc
       -0.0021946828 0.0036734946 -0.011155753 -0.0228944
000360 dd 87 9b 3d b4 07 40 3d a1 2b ee bd 87 cf 86 3d
       0.07594273 0.046882346 -0.11629415 0.065825514
000370 fd f8 01 bd 8f 84 19 be 5c 46 42 bd 77 73 8c 3d
       -0.031731594 -0.14991973 -0.04743038 0.06857961
000380 bf c6 95 bd d3 24 9b bc 24 c1 07 be 00 59 9d bd
       -0.073132984 -0.018938458 -0.13257271 -0.07682991
000390 57 5a 38 3d 26 0b e8 bc 2a c2 b1 3d ea ff b4 3c
       0.04500803 -0.028325628 0.08679612 0.022094686
0003a0 ee 83 10 be d6 65 6d bd 06 7e a7 3b 53 74 09 be
       -0.14112827 -0.057958446 0.0051114587 -0.1342328
0003b0 ad ce 1f 3d d6 bc b5 3d 19 d4 0c bd d8 de c3 bd
       0.03901546 0.08873908 -0.03438196 -0.095639884
0003c0 e8 a3 25 bd d7 43 86 3d 3b 65 cc bc 70 89 3d be
       -0.040439516 0.06555908 -0.024950614 -0.1850946
0003d0 38 6e f1 3b 23 c1 28 3d e1 d6 82 3d 01 14 01 bc
       0.0073678754 0.041199815 0.06388641 -0.007878304
0003e0 df ad b4 3c da 4a a9 3d c6 67 43 3d 67 2a 07 be
       0.022055564 0.0826623 0.047706388 -0.13199769
0003f0 1f 35 34 3d 85 84 d0 3d a3 26 1e be 39 1a f6 bc
       0.043995973 0.10181526 -0.15444426 -0.0300418

1.bias_hh_l0 f4 [512]
000000 2b 8d 40 3e d2 d1 87 3e a6 52 54 3e f0 01 0c 3e
       0.18803851 0.26527268 0.20734653 0.13672614
000010 14 5b b9 3d 29 9d 18 3e b2 3e 3d 3e 3c 45 68 3e
       0.09050575 0.14903702 0.18480948 0.22682661
000020 0b 99 85 3e 30 c7 19 3e f6 26 4c 3e c8 9d 57 3e
       0.26093325 0.1501739 0.19936737 0.21056283
000030 32 01 bd 3d 35 05 ae 3d 22 53 a5 3d d6 07 43 3e
       0.092287436 0.08497087 0.08072497 0.19045958
000040 aa 50 84 3e 6b 86 ea 3d 03 0b ff bc d8 63 a6 3d
       0.25842792 0.114514194 -0.03113318 0.081245124
000050 19 f7 4f 3e 47 19 70 3e ba 7c 86 3e 2e bd 0f 3e
       0.20309104 0.23447143 0.26267034 0.1403701
000060 00 c1 21 3e 39 84 44 3e f4 13 b9 3d d4 58 fa 3d
       0.1579628 0.19191064 0.09037009 0.12223974
000070 0e 21 1e 3d ab 54 ca 3c fb d9 92 3c ec be 3c 3e
       0.038605742 0.024698576 0.017926207 0.18432206
000080 26 b2 d3 3d 2d ca 25 3e 1a 68 13 3e 61 c3 f4 3d
       0.103367135 0.16190405 0.1439518 0.11951328
000090 d9 54 be 3d 16 5e 6f 3e 22 61 2a 3e 7d 81 77 3e
       0.09293527 0.23375735 0.16638616 0.2417049
0000a0 ce 9b cf 3d 42 ce 5c 3e b7 2e a1 3d 23 aa 20 3e
       0.10137139 0.21563056 0.07870238 0.15689902
0000b0 df 53 87 3d 28 20 38 3e 91 37 44 3e 33 f0 1d 3e
       0.06607794 0.17981017 0.19161822 0.1542366
0000c0 b2 66 d7 bb 8a a0 82 3d 04 fa 09 3e bb 31 0a 3e
       -0.0065735215 0.06378277 0.1347428 0.13495533
0000d0 02 6c 2f 3e 7a de 01 3e a4 ce ed 3d 3a 16 39 3e
       0.17131045 0.12682524 0.11611679 0.18074885
0000e0 d0 2a 7f 3e 0a ab a2 bb 0e 56 39 3d ea fe 6f 3e
       0.24918675 -0.004964237 0.045248084 0.23437086
0000f0 dc cc b5 3d 0a 74 49 3e 30 52 6f 3e 8c d9 02 3e
       0.088769644 0.19673172 0.23371196 0.127783
000100 d2 74 11 3e 23 fe 3b 3d d5 1b 30 3e f7 8d 1f 3e
       0.1420472 0.04589666 0.17198117 0.15581499
000110 70 d5 21 3e 33 31 e1 3d 9c 26 79 3e 57 87 43 3e
       0.15804076 0.10995712 0.24331135 0.19094597
000120 cc 78 32 3e 76 8a 7f 3e 5b f1 87 3d 04 01 00 3e
       0.17428893 0.24955162 0.06637832 0.12500387
000130 17 9c 86 3e 33 2b 11 3e ff ae 73 3e 01 b7 58 3e
       0.26290962 0.14176635 0.23797224 0.2116356
000140 ba b4 a0 3e e1 5b d9 3d bd 5e 3e 3e cb 68 d2 3d
       0.31387883 0.10613228 0.18590827 0.10273894
000150 ed 59 84 3e 03 e1 39 3e 80 d0 25 3d c8 b9 1f 3e
       0.25849858 0.18152241 0.040482044 0.15598214
000160 dc b9 04 3e a6 55 5e 3e 1d 6f 1e 3e 4f 69 f9 3d
       0.12961525 0.2171236 0.15472074 0.12178289
000170 28 4a 03 3e 29 6f 03 bb 65 94 7c 3e 99 15 57 3d
       0.12821257 -0.002005527 0.24665983 0.05251083
000180 6f 20 cd 3d 29 d9 2a 3e 4c ca 24 3e e2 b4 42 3e
       0.10015952 0.16684403 0.16092795 0.19014314
000190 a6 5f 11 bd c4 83 71 3e d1 f1 ba 3e 6b 1c 00 3e
       -0.035491608 0.23585421 0.36512616 0.1251084
0001a0 e9 d5 d1 bc 33 6c 30 3e 06 c5 46 3e 63 6e 09 3e
       -0.025614696 0.17228775 0.19411096 0.13421015
0001b0 d6 fd 36 3e 0c 56 8d 3d a3 39 84 3e 9f d6 51 3e
       0.17870268 0.06901178 0.25825223 0.20492028
0001c0 3c 4b 0c 3d c3 a2 4a 3e 37 57 97 3e 74 33 01 3e
       0.034251437 0.19788651 0.29558727 0.12617284
0001d0 ac cd dc 3d 7d fd 5b 3e 45 13 21 3e 8f 09 2b 3e
       0.10781416 0.21483417 0.15730007 0.16702865
0001e0 8a 4e 2e 3e 12 00 8a 3e a6 42 20 3e e1 93 9b 3e
       0.17022148 0.2695318 0.15650424 0.3038626
0001f0 71 0c 6b 3e 28 fe f2 3d aa f5 b5 3d c7 7c ce 3c
       0.22953965 0.11864883 0.08884747 0.025205983
000200 22 ac dd 3a a1 2d 3a be 6b 6d 82 ba 76 0c 8b bd
       0.0016912261 -0.18181469 -0.0009950822 -0.06789486
000210 fa d7 0b bd 36 aa 9c bd 1e f4 5e bd e0 d8 e4 bc
       -0.03414152 -0.07649653 -0.054432027 -0.027935445
000220 fc b5 02 bb ab 37 b1 bd 2c e9 80 3b 25 95 10 3c
       -0.0019944897 -0.08653196 0.0039340463 0.008824621
000230 ba a4 22 3e 3b aa 2c 3e 55 89 a4 bd 32 67 8d bd
       0.1588315 0.16861813 -0.080340065 -0.069044486
000240 7a 49 a3 3d 78 9f 96 3d 21 ba 1f 3e f5 52 41 3e
       0.07972999 0.07354635 0.15598346 0.18879302
000250 0d c4 bb bd 53 7e ab bd 52 bd 58 3e 06 5e fb 3c
       -0.09168253 -0.08373704 0.2116597 0.030684482
000260 1f a4 0b be 76 16 a3 bd a2 b3 55 be c2 c9 d6 3d
       -0.13636826 -0.079632685 -0.20869306 0.10487701
000270 76 ca a0 3c 0e d7 48 bd 5b 1d 94 3d 8a 44 20 bd
       0.01962779 -0.049033217 0.072321616 -0.039127864
000280 b5 9e dd bd c3 05 f4 3d d8 e1 71 3d 79 3c bb bd
       -0.108212866 0.119151615 0.059053272 -0.091423936
000290 7f 5d 05 bd b8 ac 02 3e 05 ba 04 3c 36 51 83 bc
       -0.032559868 0.127612 0.008100991 -0.016029935
0002a0 b2 eb 29 bc 04 09 1d 3e 10 2d 31 3d da c9 eb bd
       -0.010371136 0.1533547 0.043255866 -0.115131095
0002b0 fe c5 88 bc e3 39 8a 3d e1 71 a6 3d bf 89 25 bd
       -0.016695973 0.06749322 0.081271894 -0.040414568
0002c0 5e 9f 10 3d 00 f7 21 3d fe c8 bf 3c 1d d0 87 bc
       0.035308234 0.0395422 0.02341127 -0.016578728
0002d0 fc 6a a7 3c 50 26 36 3a eb 1c ad bd 49 b1 fc bb
       0.020436756 0.0006948458 -0.08452781 -0.0077115637
0002e0 f0 f4 ab 3d ca a7 32 bb d3 a2 b0 3d 8e 5d 7b 3b
       0.083963275 -0.0027260655 0.08624806 0.0038355323
0002f0 9d 17 f0 bd cf 02 a6 3c 76 5f f1 bd e6 46 75 3c
       -0.11723254 0.020265011 -0.11785786 0.014970517
000300 fd 83 e2 bd 0d 76 0f be 00 43 7d bd 95 c6 3b 3d
       -0.11060331 -0.14009877 -0.061831474 0.04584368
000310 24 78 21 bc e8 08 07 bc 4c a6 87 3d 28 e2 6b bd
       -0.009855304 -0.0082418695 0.066235155 -0.057588726
000320 34 4e 1c 3c ee a4 49 be f2 e7 28 3e 1b 0d 01 3e
       0.009540129 -0.19691822 0.1649473 0.12602656
000330 ce 1f 1c be 64 74 47 bd 55 b5 a5 3b 46 aa 6d bd
       -0.15246508 -0.048694983 0.005057017 -0.058023714
000340 42 69 91 3c 3e 2c 9d 3d 10 46 36 bd f0 5a c6 3b
       0.017750386 0.07674454 -0.04450041 0.006053321
000350 be fc 6a 3d bd 7a 99 bc b4 1f 03 3e 1e ce 55 3c
       0.05736994 -0.018735284 0.12805063 0.01304963
000360 81 6d 15 3e d2 c8 1c 3c ec 73 8f bd 77 3e 0e bd
       0.14592554 0.009569364 -0.07004532 -0.03472754
000370 1d 01 90 3b 01 9a 1a be 67 97 ed bd 69 b2 a9 3d
       0.004394664 -0.1509781 -0.11601143 0.08285982
000380 d8 19 fe 3b 66 c1 38 3d 2a c1 69 bd c5 1e 1b bd
       0.0077545457 0.045106314 -0.05706898 -0.03787114
000390 48 88 8d 3c 8f 92 bd 3c ed 42 7c bc 7d c8 dd bd
       0.017276898 0.023141174 -0.015396816 -0.10829256
0003a0 d4 7a e4 3c 76 3a 3f bd 06 05 92 3a de 90 30 be
       0.0278906 -0.046686612 0.0011140413 -0.17242762
0003b0 1f c6 e8 3d cc a4 c5 3d 14 92 6a 3c 26 7b aa bd
       0.113659136 0.09650573 0.014317054 -0.0832427
0003c0 e8 d0 30 bd 6d 4f db 3d bc 42 04 be e6 59 02 be
       -0.04316798 0.10708509 -0.12916082 -0.12729606
0003d0 e9 4d 83 bd 70 ab 2f 39 63 9e d0 bd ee a5 5a 3d
       -0.064113446 0.00016753166 -0.1018646 0.0533809
0003e0 ff cc dd bd ee 0d aa 3d 32 4a 4e 3c b5 b0 fc bd
       -0.108301155 0.08303438 0.012590932 -0.12338392
0003f0 a3 ab 23 bd 7a d2 aa bc 89 80 14 be 9e c3 5d 3d
       -0.039958607 -0.020852316 -0.14502157 0.054141633

3.weight f4 [37, 128]
000000 6a 3d 07 3e 05 ed 90 be e5 f9 89 bd 8d d6 fc 3e
       0.13207021 -0.28305832 -0.06737117 0.4938244
000010 44 b7 d4 3e a3 48 82 bd e4 76 ca 3e 2d e5 ba bc
       0.4154607 -0.063615106 0.3954383 -0.022814358
000020 f7 2a 3d 3e c5 2b 28 be 1d 94 2b bf dc 2a 19 3f
       0.18473421 -0.16422947 -0.6702288 0.59831023
000030 5c bf bd bc 90 6b 8f 3c 3e 5a e1 3c f9 4a dd 3e
       -0.023162536 0.017507344 0.027508851 0.43221262
000040 80 74 69 bb fd b6 74 3e 00 11 24 bd dc 20 77 3e
       -0.0035622418 0.2389793 -0.040055275 0.24133629
000050 79 14 1b be 4d 8e 3c bd 28 7b 31 bd 69 06 85 3e
       -0.15144528 -0.046034146 -0.04333034 0.25981453
000060 14 5d 13 3e 3d 52 17 3d 4b 6f 89 3e 42 75 d0 3c
       0.14390975 0.036943663 0.26842722 0.025446538
000070 73 6b 4a 3e 16 83 a3 3e 11 a8 94 bc 38 6b d6 3c
       0.19767551 0.31935948 -0.018146547 0.026174173
000080 1d dd 03 bd c2 a6 21 3d 22 dc 36 3f 38 f4 30 bd
       -0.032193292 0.039465673 0.71429646 -0.043201655
000090 e5 db c4 3d 1c a2 59 3c 0f 5f e7 bb fd 39 82 3e
       0.09612254 0.013283279 -0.0070608924 0.25434867
0000a0 41 9d c9 3e e1 de 75 be b4 89 f2 bd 0c bf a0 be
       0.39377788 -0.24010803 -0.11842671 -0.31395757
0000b0 28 92 39 3e f3 8b 85 3e df c2 46 3d 20 2d de bc
       0.1812216 0.26083335 0.048525687 -0.027121127
0000c0 0f 20 2b 3e 5b c1 a7 bd 34 13 ba 3e fa 59 74 be
       0.16711448 -0.081911765 0.36342776 -0.23862448
0000d0 8a 04 e9 3e 49 26 05 3f 29 2d 59 bd 9a e5 91 3e
       0.45511276 0.52011544 -0.053021584 0.28495485
0000e0 fc da 0d 3e c3 7f 6d 3d ff ac 21 3e e6 53 be 3e
       0.13853067 0.05798317 0.15788649 0.37173384
0000f0 82 92 53 bd 6e 5a 31 bd 21 19 a8 bd 64 ea cd 3e
       -0.051653393 -0.04329913 -0.08207918 0.40217888
000100 75 23 14 3e c8 60 0a 3e 77 b2 f8 be 2e 9f c7 3c
       0.14466651 0.13513482 -0.48573658 0.024367895
000110 34 b8 14 3e 8a 01 8a 3e e3 33 33 be 45 31 8e be
       0.14523393 0.269543 -0.17500262 -0.27771965
000120 1c 85 2c bd 40 dd e0 3e ee a7 7c 3d 0b 34 22 be
       -0.04211913 0.439188 0.061683588 -0.15840165
000130 6c 80 fb 3e 37 82 ad bd 05 46 22 bf 70 b0 06 3f
       0.49121416 -0.08472102 -0.6338809 0.5261297
000140 11 cc ea be d7 71 30 3d 6c d0 f5 be 84 14 b9 be
       -0.45858815 0.043077316 -0.48010576 -0.36148465
000150 a0 c0 c0 bd 12 44 03 be 29 22 58 bd d1 76 d7 3e
       -0.0941174 -0.12818936 -0.052766953 0.42082837
000160 33 85 af 3e d6 a9 07 bf 00 41 60 3d 52 df b7 3e
       0.3428131 -0.52993524 0.05474949 0.35912567
000170 8b 15 ca bd ee 68 ad bd 7c 8d 0e 3f fc fe 6b be
       -0.0986739 -0.084672794 0.5568464 -0.23046488
000180 13 46 a4 3d 46 94 00 3f e6 d1 ab bc f3 21 be be
       0.08021178 0.5022625 -0.02097411 -0.37135276
000190 f0 0f ab 3e 15 de 54 3e 99 ec 0b 3f 12 e0 4c be
       0.33410597 0.20787843 0.54657894 -0.20007351
0001a0 68 4b 8e be e1 56 90 be 7b a7 5a be a6 40 76 3d
       -0.27791905 -0.28191283 -0.21352951 0.060120247
0001b0 19 be fb 3d 85 44 42 3e d2 c1 be 3d 4c 14 f2 bd
       0.122921176 0.1897145 0.09314312 -0.118202776
0001c0 37 93 d8 ba 96 67 9a be 1b bc 64 be bb 02 88 be
       -0.0016523366 -0.30157155 -0.22337382 -0.26564583
0001d0 ed 24 a7 3e c0 fe 0d bd a2 f3 19 bb 3b 4d b2 be
       0.3264536 -0.034666777 -0.0023491164 -0.34824547
0001e0 ef 3c 3e 3d c4 c4 01 3f 22 4f 82 bd c4 d6 0e 3e
       0.04644483 0.50690866 -0.0636275 0.13949114
0001f0 20 19 4a 3e 70 45 b1 be 12 e0 f1 3e db 64 04 bb
       0.19736147 -0.3462329 0.47241265 -0.0020201716
000200 4d f1 0a bb b2 e0 13 3c e6 4e 44 bb 88 bf c0 3e
       -0.0021200955 0.0090257395 -0.0029954254 0.37646127
000210 19 ea 3e be e9 95 5e 3d 8c 7c 7a 3e 26 be 42 be
       -0.18643989 0.054342184 0.24461573 -0.19017848
000220 61 51 fb 3d 0d b1 7d bd b1 f3 c9 be 89 f9 df 3e
       0.12271381 -0.061936427 -0.39443734 0.43745068
000230 54 08 36 bd 16 27 db bd db 1d f9 bc 43 a1 38 3e
       -0.044441536 -0.107008144 -0.030409744 0.18030266
000240 44 7b 82 3d 88 4e 21 bc 4f 3c 87 3e 90 81 ea bd
       0.06371167 -0.009845383 0.264132 -0.11450493
000250 ac 86 00 be 28 b1 78 3e 07 7b 11 3f 69 29 b8 3e
       -0.12551373 0.2428633 0.5682835 0.35969093
000260 ff 23 21 3e 33 5b 74 3d 07 8e 52 3e f7 c1 21 3e
       0.15736388 0.059657287 0.20561992 0.15796648
000270 75 c0 9f 3d 3d 80 bd bd 3f 15 45 be a2 26 f1 3d
       0.0780038 -0.09252975 -0.19246386 0.11774947
000280 7d e6 73 3e 88 da 88 be 8b 35 e9 3e 8b 40 95 3e
       0.23818393 -0.26729226 0.45548663 0.29150805
000290 87 65 83 be 87 4b 9f 3d 7b 09 72 3e 7a 37 e9 3e
       -0.25663397 0.077780776 0.23636429 0.45550138
0002a0 72 40 df 3e b1 5b c1 be 9b 19 1c 3f a0 76 00 be
       0.43603855 -0.37765267 0.6097657 -0.12545252
0002b0 b6 79 07 be f6 b1 92 3b fb b8 d1 bc 27 4a aa 3e
       -0.13230023 0.004476781 -0.0256009 0.332597
0002c0 1c f4 a0 bd 3d a7 ee bd 73 5e 49 bd 6a 21 53 3e
       -0.0785906 -0.11652992 -0.04916234 0.20618215
0002d0 41 99 03 be ca 85 0e be 82 46 84 3a 7d d7 e4 3c
       -0.1285143 -0.13918224 0.0010091814 0.027934784
0002e0 93 5b ca 3d ea 2c 16 be 17 4e 2d bd 49 36 25 3e
       0.09880748 -0.14665571 -0.0423108 0.1613399
0002f0 0a be 3b bd d1 9f fd be 44 a7 af 3e aa c4 3e 3d
       -0.045835532 -0.49535993 0.343073 0.046574272
000300 07 dd fa ba 6c ae 79 3c 5e 28 fc be 23 97 a4 3d
       -0.0019139358 0.015239339 -0.49249548 0.080366395
000310 f4 75 b4 be 63 cd 2e be 51 86 13 be 60 c2 90 be
       -0.3524624 -0.17070536 -0.14406706 -0.28273296
000320 0b 50 39 be e5 74 11 3e 86 4c 56 bd ea d9 0f 3e
       -0.1809694 0.14204748 -0.052319072 0.14047971
000330 cb 70 d6 3c 03 de ca 3e 52 55 60 be 24 48 c1 3d
       0.02617683 0.39622506 -0.21907547 0.09437588
000340 63 c8 85 be 44 d2 0f be e6 90 a2 be fc 88 9e be
       -0.26129445 -0.14045054 -0.31751174 -0.30963886
000350 10 09 c0 be 2d 25 ce bd 02 fb b6 3e c2 69 76 3e
       -0.37506914 -0.100656845 0.3573838 0.24063781
000360 8f 16 46 bd c2 84 dd be 28 63 f6 3d 40 d0 c3 3d
       -0.048361357 -0.4326535 0.12030631 0.09561205
000370 e4 d7 2f 3e 93 ff 8f 3e 56 c1 e4 bc a2 12 aa be
       0.171722 0.28124675 -0.027924221 -0.3321734
000380 a5 b9 56 3e c0 1c ae 3e a1 e1 4c bd 18 f1 b3 be
       0.20969255 0.3400631 -0.050019864 -0.35144877
000390 96 a9 ae 3d dc a6 33 3e 86 ff ad 3e 2f 2e 16 be
       0.0852844 0.1754412 0.3398401 -0.14666055
0003a0 29 62 50 3d 72 c3 10 3e 1b 0a c3 bd 74 02 d3 be
       0.050874863 0.14137056 -0.09523412 -0.4121281
0003b0 40 9a 71 be 62 dc 9e be 79 24 ca be 57 73 81 3d
       -0.23593998 -0.31027514 -0.3948095 0.063208275
0003c0 02 5e 8c 3d 0e d4 77 be ab 37 31 3d 3f 28 83 3d
       0.06853868 -0.24201986 0.04326598 0.06404161
0003d0 e0 fe 43 3e 21 4f 8e 3d 90 64 63 3d 89 08 50 be
       0.19140196 0.069486864 0.055515826 -0.20315756
0003e0 06 4c 5f 3e 0f 56 9d 3d 5e 05 ef be 67 d9 a7 bd
       0.21806344 0.0768243 -0.46683782 -0.08195763
0003f0 9b bc b8 bc 35 c8 70 be 69 74 79 bd 7b 56 98 be
       -0.022550872 -0.23513873 -0.060902033 -0.2975348

3.bias f4 [37]
000000 91 0a 56 bd 7f d3 70 bd 70 36 05 3d 74 fd 2e bd
       -0.05225617 -0.05879545 0.03252262 -0.04272218
000010 ac 3d bd bd 17 3e 9b be b1 63 18 be 11 00 dc be
       -0.092402786 -0.30320808 -0.14881779 -0.429688
000020 a7 56 37 be 06 d7 23 be 06 47 bb bd 69 e2 b3 3c
       -0.17904149 -0.15999994 -0.09144406 0.021958547
000030 39 f7 46 bc e5 57 d5 3c 22 25 33 bd 6d 78 f7 bd
       -0.012143903 0.026042888 -0.043736584 -0.12083516
000040 41 58 2b 3d 71 a2 47 bc 44 ab 08 bd ce a9 80 bd
       0.041832212 -0.012184725 -0.033366457 -0.06282388
000050 66 2d 1a 3e 3f fe 08 bd 61 d9 84 3d 73 f5 7c 3c
       0.1505638 -0.033445593 0.06486774 0.015439379
000060 79 c9 ac bd cf 9c a2 bd 5e 0e 80 3d b0 0c 7e 3d
       -0.08436865 -0.07940065 0.0625274 0.06202382
000070 58 1e 92 bd 38 1a 42 bd 39 24 33 be 8a bc 80 3d
       -0.07134694 -0.047388285 -0.17494287 0.06285961
000080 05 46 8a bd 6a 98 14 3e 21 6d d8 bd 89 5c 8f bc
       -0.067516364 0.14511266 -0.1056769 -0.017500179
000090 5c 68 e7 3b
       0.007062001
